models/jmu_dog.pth (torch, 34762 bytes, 3 tensors)

fc0.weight f4 [128, 48]
0	0xbf04fc58	-0.51947546
1	0xbe23405d	-0.15942521
2	0xbb15ba4e	-0.0022846642
3	0xbd0ba64a	-0.034094132
4	0xbdce2524	-0.10065678
5	0x3df96da5	0.12179116
6	0xbdd56269	-0.10419161
7	0x3de6bff4	0.11267081
8	0x3e4c4dfe	0.19951627
9	0xbe099f79	-0.1343974
10	0xbe4dde7b	-0.20104401
11	0xbca6fc15	-0.020383874
12	0x3e1a3562	0.15059426
13	0x3e8a4510	0.27005816
14	0xbe2c0987	-0.1680051
15	0x3ed7c22b	0.42140326
16	0x3ee1b0be	0.44080156
17	0xbdf68787	-0.120375685
18	0xbe2555e5	-0.16146047
19	0x3d0f1912	0.03493602
20	0x3d48bf45	0.049010534
21	0x3d5a6e71	0.05332798
22	0xbece2cf4	-0.40268672
23	0xbe9122f6	-0.28346986
24	0xbe3ddfbe	-0.18542382
25	0x3dfee62a	0.12446244
26	0xbe727e48	-0.23680985
27	0xbc8128ed	-0.015766585
28	0xbd847c86	-0.064690635
29	0xbe7fe23d	-0.24988647
30	0x3e8157ad	0.25262204
31	0x3de3b7ee	0.11119066
32	0xbee8d6e1	-0.4547644
33	0x3f3604bc	0.71100974
34	0x3ef4aa03	0.4778596
35	0xbe313315	-0.17304642
36	0x3dfe1f8d	0.124083616
37	0xbed33ab0	-0.41255713
38	0xbd937d70	-0.0720166
39	0xbe653959	-0.22385158
40	0xbd40a75f	-0.047034618
41	0x3c2d4aac	0.010576885
42	0x3d44ce13	0.04804809
43	0xbcdee5e6	-0.027209233
44	0xbf23087a	-0.6368481
45	0x3f827008	1.0190439
46	0x3d609aef	0.054835256
47	0x3d12a342	0.035800226
48	0x3e295d09	0.16539396
49	0xbe78e802	-0.24307254
50	0x3e29fbd7	0.16599976
51	0x3e665587	0.22493564
52	0x3ef25882	0.4733315
53	0x3e75dc85	0.24009903
54	0xbe5c7ee1	-0.21532775
55	0xbeade8a2	-0.33966547
56	0xbf05b2fc	-0.52226233
57	0xbe0c27e6	-0.13687095
58	0xbdb5fc5e	-0.08886026
59	0x3e224005	0.15844734
60	0x3d39818d	0.045289565
61	0x3ea46da6	0.32114905
62	0xbe55f5c3	-0.20894532
63	0xbd785d20	-0.060635686
64	0x3b60a9db	0.003428093
65	0xbe8965fb	-0.26835617
66	0xbcccf387	-0.025018467
67	0xbddc4bfc	-0.1075668
68	0x3ea4587b	0.32098755
69	0x3e84080b	0.25787386
70	0x3da077be	0.07835339
71	0x3d2928df	0.041298743
72	0xbd7bac2e	-0.0614435
73	0xbe3d9570	-0.18514037
74	0xbe3b3a29	-0.18283905
75	0x3ca6d0e0	0.020363271
76	0xbc9960e4	-0.018722959
77	0xbe4b5f3b	-0.19860546
78	0x3ea9e604	0.331833
79	0x3eeee4b2	0.46658856
80	0x3d9dba6b	0.07701572
81	0x3d4c0fcd	0.049819756
82	0xbcc9a9a9	-0.024617033
83	0x3aa2bf3a	0.0012416609
84	0x3e995148	0.29944825
85	0x3bbdebc1	0.0057959263
86	0xbdcc60df	-0.09979414
87	0xbea8fba2	-0.3300448
88	0x3d4a0637	0.049322333
89	0xbf1f5faf	-0.62255377
90	0x3ddc8eae	0.107694015
91	0xbe596168	-0.21228564
92	0xbe2a9002	-0.16656497
93	0x3e5ffa9d	0.21872945
94	0xbe787582	-0.24263576
95	0x3e56485c	0.2092604
96	0xbef689dd	-0.48152056
97	0x3e20bbe3	0.15696673
98	0xbe54d66e	-0.20784923
99	0xbd30f7dc	-0.043205127
100	0x3e9d097a	0.30671293
101	0x3dfa3c4e	0.122185335
102	0x3c76eaf4	0.015070666
103	0xbd0df5bc	-0.03465818
104	0x3e6e8383	0.23292355
105	0x3e4c1589	0.1993009
106	0x3b7fb113	0.0039015457
107	0x3e8d97e5	0.2765495
108	0xbea55c97	-0.32297203
109	0x3e8fa37e	0.28054422
110	0xbd57a73d	-0.052649725
111	0xbe13c5d3	-0.14430933
112	0x3ca3b741	0.019984843
113	0x3dd5c657	0.10438221
114	0xbd28cdb4	-0.0412118
115	0x3d980383	0.07422545
116	0xbf30d361	-0.6907254
117	0xbef66944	-0.48127186
118	0x3ac88715	0.0015299047
119	0x3eac4599	0.3364685
120	0xbdbb9589	-0.09159381
121	0xbd9bb7d4	-0.07603422
122	0xbe644f9a	-0.2229599
123	0xbeac8851	-0.3369775
124	0xbd9ba51c	-0.075998515
125	0xbca06856	-0.019581001
126	0x3d73397e	0.059381
127	0xbd0315a4	-0.03200306
128	0xb9eee1c5	-0.0004556311
129	0xbe9ec93e	-0.3101291
130	0x3f26b61b	0.6512162
131	0x3e768683	0.2407475
132	0xbd9751b6	-0.07388632
133	0x3e7a1d08	0.24425137
134	0x3eb63151	0.355845
135	0x3baced53	0.0052773147
136	0x3eba7744	0.36419117
137	0x3e9af516	0.3026511
138	0x3f173434	0.5906403
139	0x3e2120b1	0.15735127
140	0x3f3ce3ff	0.73785394
141	0x3e3d4f6a	0.18487325
142	0x3ebf67e5	0.37383953
143	0x3eb83e78	0.3598516
144	0xbdeddaa3	-0.11613967
145	0xbcf55a2e	-0.029950228
146	0x3e8d7e16	0.27635258
147	0xbe2dad9a	-0.16960755
148	0x3d6ceeb5	0.057844836
149	0xbd253051	-0.04032928
150	0xbe5660ad	-0.20935316
151	0xbd92e049	-0.07171685
152	0x3ec63e46	0.38719386
153	0x3dc6f590	0.09714806
154	0x3c119aaa	0.008886972
155	0x3d66a263	0.056307208
156	0xbecc53c8	-0.3990767
157	0xbda7949c	-0.08182642
158	0xbe1c9b0d	-0.15293522
159	0x3d073fdb	0.03301988
160	0x3c71dae6	0.014761662
161	0xbea9b7d2	-0.33148056
162	0xbe4c1363	-0.1992927
163	0xbe00d7b2	-0.12582281
164	0x3d9dabe4	0.07698801
165	0x3e107fea	0.14111295
166	0x3ec0dba9	0.37667587
167	0xbbb3eeca	-0.0054911124
168	0x3e0dc64b	0.13845174
169	0xbdc4ae92	-0.09603609
170	0x3e27baf4	0.1637991
171	0x3b70ff45	0.0036773246
172	0xbea751f9	-0.32679728
173	0x3eb0ea5e	0.34553808
174	0x3c374594	0.011186022
175	0xbe3ffda9	-0.18749107
176	0xbe3d58e0	-0.18490934
177	0xbdd46857	-0.10371464
178	0x3f1b6298	0.6069732
179	0xbe35e479	-0.17762937
180	0x3e1d0add	0.15336175
181	0x3c6f0bba	0.014590198
182	0x3d9cf20f	0.076633565
183	0x3e933c03	0.28756723
184	0xbe0f02c6	-0.13965902
185	0xbe8ec02a	-0.27880985
186	0x3efeaec6	0.49742717
187	0x3e2631a0	0.16229868
188	0xbed9a33f	-0.4250736
189	0x3df8d547	0.121500544
190	0x3e46f415	0.19429047
191	0xbde23e77	-0.110470705
192	0x3e8f2d44	0.27964222
193	0x3da3cec5	0.079984225
194	0xbdf873d1	-0.12131465
195	0x3d453cd9	0.048153732
196	0xbc3d08ab	-0.011537711
197	0x3d5c7e49	0.053831372
198	0x3da2ec8b	0.07955273
199	0x3d113877	0.03545424
200	0xbe2b39b5	-0.16721232
201	0xbc075be4	-0.0082616545
202	0xbd3607fd	-0.044441212
203	0xbe8505b7	-0.25980923
204	0x3c255cab	0.010092895
205	0x3d0fcd5e	0.035107963
206	0xbd745062	-0.05964697
207	0x3e0cbf43	0.13744836
208	0xbea20e25	-0.31651416
209	0x3db25507	0.08707624
210	0xbec34fc6	-0.381468
211	0x3ee3a2ed	0.4446024
212	0x3e1cd8f2	0.15317133
213	0x3e8b088d	0.2715496
214	0xbd7f6207	-0.062349346
215	0xbe4f2821	-0.20230152
216	0xbe82dfb4	-0.25561297
217	0x3d3ab28d	0.045580436
218	0x3de1e834	0.11030617
219	0x3dd8b8cf	0.105821244
220	0xbe71af24	-0.23601967
221	0xbce1730e	-0.027520683
222	0xbe55320b	-0.20819871
223	0x3d951854	0.07280031
224	0xbd1f640c	-0.03891377
225	0xbe97cedb	-0.29650006
226	0x3e3c738f	0.18403457
227	0xbf9ebcf6	-1.2401416
228	0xbeba5d5c	-0.36399353
229	0xbe5e87d3	-0.217315
230	0x3c982361	0.018571557
231	0xbd77efa6	-0.06053128
232	0x3eb741da	0.35792428
233	0xbecf9798	-0.40545344
234	0x3e508fb6	0.20367321
235	0x3dfd3f08	0.12365538
236	0x3df46d3f	0.119348995
237	0x3e2c6973	0.168371
238	0xbca40a30	-0.020024389
239	0x3eb169e1	0.34651092
240	0x3ea24f05	0.31700912
241	0x3ca7ed29	0.020498829
242	0xbcff07ec	-0.031131707
243	0x3c13d228	0.009022273
244	0x3e7aa147	0.24475585
245	0x3d8c0a4e	0.06837903
246	0xbd44f926	-0.04808917
247	0xbe9c46cd	-0.30522767
248	0xbd036bee	-0.03208535
249	0x3e16d9eb	0.14731567
250	0xbc12b689	-0.008954653
251	0x3d9b6ef4	0.07589522
252	0x3d440804	0.047859207
253	0xbe6cacb2	-0.23112753
254	0x3d282235	0.041048247
255	0x3c37c22f	0.011215731

fc0.bias f4 [128]
0	0xbecf76ea	-0.40520412
1	0x3d84fc9f	0.06493496
2	0xbeadfce9	-0.33982018
3	0xbdf262a8	-0.118352234
4	0xbf695a6c	-0.911536
5	0xbf2e4a7a	-0.6808239
6	0xbdc6d2d0	-0.09708178
7	0xbe63f524	-0.22261482
8	0xbcc47b0e	-0.023984458
9	0x3d911015	0.070831455
10	0xbe524c9e	-0.2053704
11	0xbed86ff7	-0.42272922
12	0xbe0af70d	-0.13570805
13	0xbe5c6182	-0.21521571
14	0x3d062854	0.032753304
15	0xbe1d007d	-0.15332218
16	0xbdb34e8f	-0.08755218
17	0x3e0ed80f	0.13949607
18	0xbe8c76b1	-0.27434304
19	0xbd80a421	-0.06281305
20	0xbc05a98c	-0.008158099
21	0x3e15b2d9	0.14619006
22	0x3d7f5e67	0.06234589
23	0x3e0528d9	0.13003863
24	0xbd0483b2	-0.032352157
25	0xbd40bb2e	-0.04705351
26	0xbec35976	-0.3815419
27	0xbeae6fe2	-0.34069735
28	0x3e929390	0.28628206
29	0x3d317ff8	0.04333493
30	0xbf2dfd2f	-0.6796445
31	0x3dcc5fdb	0.099792205
32	0x3d91788b	0.0710307
33	0xbd7c9f6e	-0.06167548
34	0xbda785d6	-0.08179824
35	0xbe6d6ec9	-0.23186792
36	0xbec40f34	-0.3829285
37	0x3d90e7b4	0.07075444
38	0xbe317d9f	-0.17333077
39	0xbec69225	-0.38783374
40	0xbeb26c0f	-0.34848067
41	0x3d46b092	0.048508234
42	0xbf8b757b	-1.0895227
43	0xbeb94736	-0.36187142
44	0xbc981e0f	-0.01856902
45	0xbd835b67	-0.06413918
46	0x3da48fd2	0.08035244
47	0x3d8efca7	0.06981783
48	0x3d9918bf	0.07475423
49	0xbe473c84	-0.19456679
50	0xbc401e13	-0.01172592
51	0x3e2f1ea1	0.17101528
52	0xbe29a9c9	-0.16568674
53	0xbcfb8677	-0.030703766
54	0xbe94dd27	-0.29074976
55	0xbdd60a45	-0.104511775
56	0x3d8709de	0.06593679
57	0x3e2b385a	0.16720715
58	0xbd322435	-0.04349156
59	0x3e18fa08	0.1493913
60	0xbf84cc7f	-1.0374907
61	0x3e140643	0.14455514
62	0xbdaeb272	-0.085301295
63	0xbec27263	-0.37977895
64	0xbcd81067	-0.026375009
65	0x3bb1741f	0.005415454
66	0xbf56c10c	-0.83888316
67	0xbda0ccfa	-0.07851596
68	0xbdadc719	-0.084852405
69	0x3d4bd993	0.04976804
70	0xbe0d0c74	-0.13774282
71	0xbe67a9a3	-0.22623305
72	0x3dc87d28	0.09789497
73	0x3e08cb9b	0.1335892
74	0x3db469b5	0.088092245
75	0xbe0febe2	-0.14054826
76	0xbc97dce5	-0.018537948
77	0x3db8d97e	0.09025858
78	0xbf4a2405	-0.7896121
79	0x3b6ee595	0.003645276
80	0xbe749c99	-0.23887862
81	0x3cab3676	0.020899992
82	0xbd9a3b7c	-0.07530877
83	0x3de7dc1a	0.11321278
84	0xbd85a872	-0.06526269
85	0xbd948d30	-0.07253492
86	0x3c050d9b	0.00812092
87	0x3e7cade8	0.24675715
88	0x3dff311a	0.12460537
89	0xbdc8404b	-0.09777888
90	0x3da87600	0.08225632
91	0x3ef61966	0.48066252
92	0xbda9c39f	-0.08289265
93	0xbf807f3b	-1.0038828
94	0xbcb78aab	-0.02240499
95	0x3d7e37f6	0.062065087
96	0xbe94c476	-0.29056138
97	0xbc483b04	-0.012221102
98	0x3d5063cf	0.050876435
99	0xbc26a8f2	-0.010172116
100	0xbc0899f3	-0.008337486
101	0x3d1c5fab	0.038177174
102	0xbd915853	-0.07096925
103	0x3d7eb02d	0.062179733
104	0xbe8c50dc	-0.2740544
105	0x3d133284	0.035936847
106	0xbcf5abb5	-0.029989103
107	0xbf2074e2	-0.6267835
108	0xbd997c96	-0.07494466
109	0xbe9c0043	-0.3046895
110	0x3d1c0860	0.038093925
111	0x3d934a0e	0.07191859
112	0xbf7ef20c	-0.99588084
113	0xbe09f70f	-0.13473152
114	0xbe8c7462	-0.27432543
115	0xbe28bbff	-0.16477965
116	0xbc898301	-0.0167861
117	0xbbb05f09	-0.005382423
118	0x3dab3b15	0.083608784
119	0xbd90e467	-0.07074814
120	0xbefc9366	-0.49331206
121	0xbd03fe71	-0.032225076
122	0x3e1de2c4	0.15418535
123	0x3cc582dc	0.02411025
124	0xbe0817b2	-0.13290289
125	0xbdfcb4c4	-0.12339166
126	0xbf093ccb	-0.5360839
127	0x3d844e76	0.06460278

fc1.weight f4 [16, 128]
0	0x3daa7fbb	0.08325144
1	0xbdcb0455	-0.09912936
2	0xbdafc8af	-0.08583199
3	0x3e34c4d8	0.17653215
4	0xbe81b9c5	-0.25337043
5	0xbe3766ac	-0.1791026
6	0x3e4abca4	0.19798523
7	0xbde6e45b	-0.11274024
8	0xbd7ebffd	-0.062194813
9	0x3ec1c903	0.37848672
10	0xbd3bf63e	-0.04588913
11	0x3d4797df	0.04872882
12	0x3e34e57b	0.17665665
13	0x3d973c57	0.07384556
14	0x3df6ffe6	0.120605275
15	0x3c4983e4	0.012299512
16	0xbcac2519	-0.021013783
17	0xbeae5599	-0.3404968
18	0xbee56f95	-0.44811693
19	0xbe86e658	-0.26347613
20	0xbd840060	-0.06445384
21	0x3ca08276	0.019593459
22	0x3b68dd8a	0.0035532438
23	0x3deeaf37	0.11654513
24	0x3c8fc22e	0.017548647
25	0x3ea4c814	0.32183897
26	0xbde6f1f9	-0.11276621
27	0xbbcad4cf	-0.0061899195
28	0x3aa06ede	0.0012240072
29	0x3e6486d5	0.2231706
30	0xbe9c39f3	-0.30512962
31	0x3d407a39	0.04699156
32	0xbe487c80	-0.19578743
33	0x3de4261a	0.1114008
34	0x3c286c26	0.010279691
35	0xbd47aba5	-0.048747677
36	0x3c8dc4ae	0.017305698
37	0x3da8cc68	0.082421124
38	0xbdd85138	-0.10562366
39	0x3c51bc28	0.012801208
40	0xbe2f4817	-0.17117344
41	0xbe3cc7e3	-0.18435626
42	0x3e434918	0.19070852
43	0xbe1219fc	-0.14267725
44	0x3e611d4b	0.2198383
45	0xbc84a7fd	-0.016193384
46	0xbe31d6c8	-0.17367089
47	0x3e24ae2b	0.16082065
48	0x3f11ce55	0.5695546
49	0x3c93a581	0.018023254
50	0xbde93a24	-0.113880426
51	0x3e38a209	0.18030562
52	0xbd56b456	-0.052418076
53	0x3df4f2d8	0.11960381
54	0x3ea0728c	0.31337392
55	0x3e99c6c0	0.30034447
56	0xbdddfc02	-0.10839082
57	0xbd1d8fd4	-0.038467243
58	0x3ef2c33e	0.47414583
59	0x3da69ac9	0.08134992
60	0x3e186548	0.14882386
61	0x3d760671	0.060064737
62	0x3e7b0b79	0.24516095
63	0xbc22ec22	-0.009943994
64	0xbc8bcd9c	-0.017065816
65	0xbd2f0035	-0.042724807
66	0x3c36cb59	0.01115688
67	0x3ce7922d	0.028267944
68	0xbd91e885	-0.07124428
69	0x3e2b487b	0.16726868
70	0xbad33123	-0.0016112666
71	0xbe673cf6	-0.22581849
72	0xbd0224c1	-0.031773333
73	0xbcf55c8a	-0.029951353
74	0xbe6a0210	-0.2285235
75	0x3d6054a9	0.05476824
76	0xbe2948a2	-0.16531613
77	0x3b29acc3	0.0025890328
78	0xbe57a79c	-0.21060032
79	0x3dd229ae	0.10261856
80	0xbd85c880	-0.06532383
81	0x3e3e9605	0.18611915
82	0x3e327a7b	0.17429535
83	0x3d88dbd4	0.06682554
84	0xbce5e1ce	-0.028061774
85	0x3b7278c0	0.0036998242
86	0x3d9cc265	0.07654265
87	0xbe6b8424	-0.22999626
88	0xbd7f44cb	-0.062321465
89	0x3de60eb7	0.112332754
90	0x3d754f20	0.059889913
91	0x3d4c7239	0.04991362
92	0xbaec88d4	-0.0018046149
93	0xbe51e9c3	-0.2049933
94	0x3e4ec083	0.20190625
95	0xbe0359a0	-0.12827158
96	0x3ed9ab5f	0.42513558
97	0xbc296fa5	-0.01034156
98	0x3e01bc26	0.12669429
99	0xbe560fa0	-0.20904398
100	0xbde45030	-0.11148107
101	0x3e4e3865	0.201387
102	0x3de2aa7f	0.11067676
103	0x3ccc61b5	0.024948934
104	0x3da6f2cb	0.08151778
105	0xbe60da2f	-0.2195823
106	0xbf0f645b	-0.56012505
107	0x3e035b93	0.12827902
108	0x3f0201a5	0.5078376
109	0xbb480698	-0.0030521508
110	0xbd67631c	-0.056491002
111	0xbe4891ae	-0.19586822
112	0x3d4c7aa3	0.049921643
113	0xbdbd43bd	-0.09241436
114	0x3be6d141	0.007043988
115	0xbebba0c2	-0.36646086
116	0xbe6533c4	-0.22383028
117	0xbb687bf5	-0.0035474275
118	0x3dfd8723	0.12379291
119	0x3dfcb09d	0.12338374
120	0xbe702a5a	-0.23453656
121	0x3b55ad7e	0.003260463
122	0x3e515041	0.2044077
123	0x3e915369	0.2838395
124	0xbe2bad24	-0.16765267
125	0xbe27e2e9	-0.16395153
126	0xbe1705c9	-0.147483
127	0x3de6b8d1	0.1126572
128	0xbbb24d49	-0.005441342
129	0xbcc92cc6	-0.024557482
130	0x3dead742	0.114668384
131	0x3e07e592	0.13271168
132	0xbe733d51	-0.23753859
133	0xbe1e0e8f	-0.15435241
134	0x3e1a6321	0.15076877
135	0xbe0b665a	-0.13613263
136	0xbe335cba	-0.17515841
137	0x3e9e2c98	0.30893397
138	0xbe882028	-0.26587033
139	0x3d3de8bd	0.046364535
140	0x3ea44907	0.32086965
141	0x3cc21541	0.023691775
142	0x3dcd91a0	0.100375414
143	0xbc670111	-0.014099375
144	0xbd1fd2f8	-0.039019555
145	0xbe61b951	-0.22043349
146	0xbe16d229	-0.14728607
147	0xbd8256eb	-0.063642345
148	0xbdb6ada1	-0.08919836
149	0x3c452c9a	0.01203456
150	0x3df34336	0.11878054
151	0x3e241060	0.16021872
152	0x3d52424a	0.05133275
153	0xbe4482a7	-0.19190465
154	0xbdacae2c	-0.08431658
155	0xbce44e22	-0.027869288
156	0xbe3efabb	-0.18650334
157	0xbad82e74	-0.0016493336
158	0xbe2da715	-0.16958268
159	0x3e2d10b1	0.16900899
160	0xbba371ca	-0.00498793
161	0x3d8de22b	0.06927904
162	0xbd9a69a9	-0.07539684
163	0xbceb46ac	-0.028720222
164	0x3eca7b01	0.3954697
165	0x3e282c06	0.16423044
166	0xbda4e32b	-0.08051141
167	0x3d93aad9	0.07210321
168	0xbe225d7b	-0.15855972
169	0xbe06e332	-0.13172606
170	0x3e6cfe7a	0.2314395
171	0xbd51c446	-0.05121257
172	0x3e1f1b5b	0.15537779
173	0xbd8c20dc	-0.06842205
174	0xbe3409a9	-0.1758181
175	0x3db94d88	0.09047991
176	0x3ec0e0df	0.37671563
177	0xbd89007a	-0.06689544
178	0xbc87ffc6	-0.016601454
179	0x3e5678ea	0.20944563
180	0x3d225a9d	0.039637197
181	0x3d876550	0.06611121
182	0xbd177bbc	-0.036983237
183	0x3e453dc1	0.19261838
184	0xbd128d66	-0.03577938
185	0xbd0b3bbd	-0.033992518
186	0x3eec42e1	0.46144775
187	0x3ca9c3f4	0.02072332
188	0x3e8b4e56	0.27208203
189	0xbd8b9fba	-0.06817575
190	0xbb490d0e	-0.0030677947
191	0xbc7fa4e1	-0.015603275
192	0xbc536dd2	-0.012904601
193	0x3d5bea9b	0.053690534
194	0xbd7ec8e6	-0.06220331
195	0x3e138242	0.14405158
196	0x3daab139	0.08334584
197	0x3e2b2f92	0.16717365
198	0xbd765e8e	-0.060148768
199	0xbbb45c09	-0.0055041355
200	0x3beac848	0.0071649887
201	0xbd63b195	-0.055589277
202	0xbe909c5b	-0.2824429
203	0x3dc6bee2	0.09704377
204	0xbe3452d3	-0.1760972
205	0x3d1a0e00	0.037611008
206	0xbe7a5dce	-0.24449846
207	0x3e40e958	0.18839014
208	0xbd8a57c7	-0.067550234
209	0x3e3821b1	0.17981602
210	0xbe2df477	-0.16987787
211	0x3a99b1bb	0.0011725941
212	0xbc5ebba4	-0.013594542
213	0x3d2af70a	0.0417395
214	0x3e629efe	0.22130963
215	0xbe54f510	-0.20796609
216	0x3d35d84f	0.04439574
217	0x3db72a94	0.08943668
218	0x3d5752e6	0.052569292
219	0x3d938e18	0.072048366
220	0x3d86d781	0.06584073
221	0x3b5a6a0c	0.003332737
222	0x3e0955a8	0.13411582
223	0xbd49e8e1	-0.049294356
224	0x3eb3543a	0.35025197
225	0x3cc44266	0.023957442
226	0x3e4d9d1a	0.2007946
227	0xbe419ac7	-0.18906699
228	0xbd383b98	-0.044978708
229	0x3e45f217	0.19330631
230	0xbdeac040	-0.1146245
231	0xbcd4291d	-0.02589851
232	0x3d8b9014	0.0681459
233	0xbd504f4e	-0.05085688
234	0x3f039216	0.51394784
235	0x3e1b7381	0.1518078
236	0x3ef6f5a6	0.4823429
237	0xbdbb66d8	-0.09150475
238	0x38aee1c5	8.3390194e-05
239	0xbe391ec2	-0.1807814
240	0x3e1d17a7	0.15341054
241	0xbe029842	-0.12753394
242	0xbd20c82a	-0.03925339
243	0xbe478548	-0.19484437
244	0xbe64cf29	-0.2234465
245	0xbdf87ce9	-0.121332
246	0x3ddd20c6	0.10797267
247	0x3dfcb00b	0.12338265
248	0xbe52b418	-0.20576513
249	0xbd3023ce	-0.043002896
250	0x3e922dc3	0.28550538
251	0x3e5aa3bf	0.21351527
252	0xbdddcc90	-0.10830033
253	0xbdf462ab	-0.11932882
254	0xbe544774	-0.20730382
255	0xbc8d8eb6	-0.017279964
