models/jmu_dog_v1.pth (torch, 34762 bytes, 3 tensors)

fc0.weight f4 [128, 48]
000000 ea cb b2 be 11 80 51 bd 87 9a 84 3d e1 a1 e9 3d
       -0.349212 -0.051147524 0.06474786 0.11407829
000010 06 e3 bc bd 90 d6 81 3e 6a 85 3e bd 34 b2 67 3e
       -0.09222989 0.2535901 -0.046513952 0.22626573
000020 22 6a 89 3e 92 df 18 be 1e bb 82 be aa f1 2a 3d
       0.26838785 -0.14929035 -0.25533384 0.041734375
000030 14 da 06 3e 37 54 bf 3e eb 0a a1 bd 6d fa b1 3e
       0.13169128 0.37368938 -0.078634106 0.34761372
000040 23 b6 94 3e 16 d3 34 be 5e 96 40 be ac e6 9a 3e
       0.2904521 -0.17658648 -0.1880736 0.30254114
000050 be 9e 95 bd 54 e6 50 be 16 a9 4d be 88 89 03 be
       -0.07305668 -0.20400363 -0.20084032 -0.12845433
000060 c4 58 b4 bd a3 30 38 3e a7 bc 2d be 6c 5c 5f be
       -0.08805993 0.17987303 -0.16966496 -0.218126
000070 d9 1f 8a be 5b 98 9b be 5e eb 3c 3e 5f e4 e7 3d
       -0.26977423 -0.30389675 0.1844916 0.11322855
000080 0a 15 9c be 83 1f c2 3e a8 e1 00 3e ea 03 8a be
       -0.30484802 0.37914667 0.12586081 -0.2695611
000090 d8 bd b0 3d 64 0f 6f ba 35 6f 8b be 6e 6d a9 be
       0.0862996 -0.000911942 -0.27233282 -0.330913
0000a0 c5 74 01 be f6 55 18 be 9d b4 a5 3d 0d 4d 20 3c
       -0.126422 -0.14876541 0.0809109 0.009783995
0000b0 52 bc 04 bf be 3c 65 3f 31 37 48 3e ff e1 a7 bc
       -0.51849854 0.8954581 0.19552304 -0.020493506
0000c0 42 e8 10 3e b1 58 49 be 88 73 09 3e 88 9b 31 3e
       0.141511 -0.1966274 0.13422978 0.17344487
0000d0 ae 13 a7 3e 50 e8 04 3e 7c 8c 93 be 64 f1 a0 be
       0.32632202 0.12979245 -0.2881812 -0.31434166
0000e0 24 d6 0e bf f3 11 02 be ac 35 47 bd 37 bc 09 3e
       -0.557955 -0.1270216 -0.04863517 0.13450705
0000f0 30 4b 1e 3d b1 4a a6 3e 47 36 0e be 52 de e1 bd
       0.038645923 0.3247886 -0.13887893 -0.11028732
000100 fb 5c b9 3d 6d 07 3f be 44 9f aa be 58 fb 32 be
       0.09050938 -0.18655176 -0.33324635 -0.17478693
000110 e9 bb 10 3e ff 1d 83 3c 90 27 09 3e 72 54 8b 3d
       0.14134182 0.016005514 0.13393998 0.06803216
000120 32 c0 19 3d 32 d1 f1 bd 76 00 55 bd 65 70 19 3d
       0.037536807 -0.11807479 -0.052002393 0.037460703
000130 44 ff 1c bd 76 e6 40 bd 30 d3 53 3e 2d 9a 94 3e
       -0.038329378 -0.047094785 0.2068603 0.29023877
000140 a1 9f d7 3d 5f 63 26 3e db 51 f6 3c 2d 1b d4 bd
       0.10528494 0.16248845 0.030068329 -0.10356746
000150 9d 7c 39 3e f8 be 4f 3d a9 78 91 bd 63 d9 4e be
       0.18113942 0.05071923 -0.07103092 -0.20200114
000160 71 0b 4e 3a ea ee 0b bf a3 4c a5 bc 96 ef 52 be
       0.0007859981 -0.5466143 -0.020178145 -0.20599207
000170 56 9e 6e be f3 37 99 3e 71 6f 22 be 6e 4d 94 3e
       -0.23302588 0.29925498 -0.15862824 0.28965324
000180 d2 07 d6 be c3 2b 25 3d 85 92 87 be b8 b4 41 3d
       -0.4180284 0.040324938 -0.26478973 0.047291487
000190 e6 78 92 3e 2d 7b 0c 3e 38 30 ce bc 5e 45 36 bd
       0.28607863 0.13718863 -0.025169477 -0.044499747
0001a0 a7 d6 4f 3e fa 72 da 3d 0c c0 d4 bd fa 07 f2 3d
       0.20296727 0.10666461 -0.103881925 0.11817928
0001b0 82 06 93 be a8 44 86 3e e9 61 d4 bd a6 9c 09 be
       -0.28715903 0.26224256 -0.103702374 -0.13438663
0001c0 88 14 81 3d b5 95 12 be 19 dc 0c bd 86 3b 9c bc
       0.06302744 -0.14314921 -0.03438959 -0.019071352
0001d0 69 ea 1d bf 4e 91 a4 be d4 69 08 be 00 0a c7 3e
       -0.61685807 -0.3214211 -0.1332162 0.38874817
0001e0 16 c8 ef bd a3 ee 08 be 2e 66 db be f7 54 07 be
       -0.11708085 -0.13372283 -0.42851394 -0.13216005
0001f0 bd 12 9c be 2c 91 9b bd 9a 2c 00 be 6a 3c 60 bd
       -0.30483046 -0.07596049 -0.12517014 -0.054745115
000200 ed 09 38 3e 66 f3 a9 be e3 45 28 3f 1b 7a df 3e
       0.17972536 -0.3319351 0.6573164 0.43647847
000210 f1 52 77 be ae 93 d7 3e 47 be c6 3e 44 66 d6 3c
       -0.24152733 0.42104858 0.38817045 0.02617181
000220 f8 d4 8e 3e d5 f1 ac 3e c1 7f 19 3f ec ee 43 3d
       0.27896857 0.33778253 0.5996056 0.047835276
000230 43 bf 0e 3f 48 b3 27 3e c4 34 a4 3e 62 04 3d 3e
       0.5576059 0.16376984 0.32071507 0.18458703
000240 1f c8 2e be 70 34 f7 bc 37 0a 61 3e 6c 0e c7 bd
       -0.17068528 -0.030176371 0.21976553 -0.09719548
000250 a5 16 8d 3d 97 a6 23 be 8d 4e 7b be eb 5f a8 bc
       0.06889085 -0.15981518 -0.24541683 -0.02055355
000260 6d bc 64 3e 5d f3 eb 3c f5 24 80 bd 7f 90 b2 ba
       0.22337504 0.028802568 -0.06257049 -0.0013623385
000270 9a 99 e3 be f7 9b 06 be 58 e2 52 be c6 36 b2 3c
       -0.44453126 -0.13145433 -0.20594156 0.021754634
000280 8f 6e 2a 3e aa 82 73 be ba b4 09 bf aa 5a 26 be
       0.16643737 -0.23780313 -0.5379139 -0.16245523
000290 f7 71 a9 3d 17 32 b4 3e 1c a8 21 3e f6 76 d3 bd
       0.0827369 0.35194466 0.15786785 -0.103254244
0002a0 61 a6 f5 3a e6 af 21 be db 75 a1 3d 51 67 72 bd
       0.0018741601 -0.15789756 0.07883807 -0.05918056
0002b0 95 e0 b3 be cc 1f 6e 3e 6f 11 07 3e 49 f8 66 be
       -0.3513228 0.23254317 0.13190244 -0.22555651
0002c0 fe f4 a7 bd e6 f9 97 bd be 45 91 3e ae 9a 69 be
       -0.082010254 -0.07420711 0.28373522 -0.22812912
0002d0 85 b3 8d 3d 73 2b a9 bd 01 de d6 3d cb c4 5a 3e
       0.06919006 -0.082602404 0.10491563 0.21364133
0002e0 a4 e7 65 bd 7e ee 88 be 07 d7 ce 3e 32 10 38 3e
       -0.056129113 -0.26744455 0.40398428 0.17974928
0002f0 6f 35 df be 74 4f a4 3e c6 e8 0c 3d 90 6f 0e 3e
       -0.43595454 0.32091868 0.034401678 0.13909745
000300 99 ed 28 3e cd a8 e5 3d 0e 95 5b be da b2 fe 3d
       0.16496886 0.11213837 -0.21443579 0.12436457
000310 1c 60 06 3d fd 3d e9 3d 5b cf fe 3d e5 44 36 3d
       0.0328065 0.113887765 0.12441894 0.044499297
000320 0f 9f 14 be 9f 04 72 3c 29 d4 89 bd b4 c6 4a be
       -0.14513801 0.01477161 -0.067299195 -0.19802362
000330 77 be a9 3c a6 b0 ce 3d bf 0d cd bc af 4d 32 3e
       0.020720704 0.10092287 -0.025030969 0.17412446
000340 5d 26 b3 be 42 51 51 3d 40 62 92 be 54 82 3e 3e
       -0.34990206 0.051102884 -0.28590584 0.18604404
000350 c4 4b 27 3e fa c5 39 3e eb 2a e2 bc 8d e8 b6 bd
       0.16337496 0.18141928 -0.027608356 -0.08931074
000360 11 ba 84 be b3 b0 67 bd 74 13 27 3d 46 15 e9 3d
       -0.25923207 -0.056564998 0.040790036 0.11381011
000370 93 ef d0 be 85 5e 85 bd 73 0f ed bd e6 58 70 3d
       -0.4080778 -0.06512169 -0.11575212 0.05867853
000380 6d 05 09 be 3d 74 98 be 7b 19 18 3e 96 49 f0 be
       -0.13380976 -0.29776183 0.1485347 -0.46931142
000390 0a cf 75 be 38 5f 7e be b6 ac 6f bd d6 70 4f bd
       -0.2400476 -0.2484101 -0.05851432 -0.050644718
0003a0 9b c6 88 3e e6 9d d5 be f6 46 87 3e 00 0d b1 3d
       0.26714024 -0.4172203 0.26421326 0.08645058
0003b0 31 24 04 3e cb 8a 1b 3e 83 e2 9c bd 2a 95 82 3d
       0.12904431 0.15189664 -0.07660391 0.06376107
0003c0 9e ac 96 3e 35 9d 0b 3d 3e 6e 14 3c e1 3a 8e 3c
       0.2942857 0.03408547 0.009059487 0.01736206
0003d0 b7 0f 68 3e ff 7d 82 3d 2b ec cc bc 62 e9 92 be
       0.22662245 0.06371688 -0.025014957 -0.28693682
0003e0 e5 28 05 bd 02 07 ac 3d f5 c6 57 3d 3c 87 58 ba
       -0.032509703 0.08399774 0.052679975 -0.00082598976
0003f0 e7 98 a7 3d 99 23 81 be d1 6a 6a 3d 96 25 ca 3c
       0.08183461 -0.2522247 0.057230774 0.024676125

fc0.bias f4 [128]
000000 a3 c8 93 be 97 fb 39 3d 7f e0 80 be cf 58 56 bd
       -0.2886401 0.04540595 -0.25171277 -0.05233079
000010 90 25 50 bf 71 d4 17 bf aa 84 b7 bd a7 e9 0a be
       -0.81307316 -0.59308535 -0.089608505 -0.13565694
000020 fd 95 81 3a ee fc 25 bc 59 c0 1d be e5 25 dd be
       0.0009886619 -0.010131104 -0.15405406 -0.43192974
000030 12 58 fd bd d1 cc 4f be 6f a8 9b 3d 82 c0 17 be
       -0.12370314 -0.20292975 0.076004855 -0.1481953
000040 ac 2d 08 be 8a e9 ab 3d dd 85 9c be 8e af 3b be
       -0.13298672 0.083941534 -0.3057088 -0.18328688
000050 e0 fd a8 bd 2c 95 08 3e 1a 16 9c 3d 2a ef fb 3d
       -0.08251548 0.13338155 0.07621403 0.12301476
000060 e5 f0 82 3b 6d 40 b8 bd be e8 6c be fe b0 6a be
       0.003996002 -0.08996663 -0.23135659 -0.2291908
000070 b2 f8 8c 3e a0 5d cf 3d 32 56 1f bf 5e 1f a5 3d
       0.2753349 0.101252794 -0.622409 0.080626234
000080 d1 24 8c 3c c3 18 9d bd 65 09 13 be c1 4e 81 be
       0.0171074 -0.076707385 -0.14359052 -0.25255397
000090 08 56 7d be 0b 7e e7 3d b4 4b 2b be dd ba 97 be
       -0.2473985 0.11303338 -0.16728097 -0.29634753
0000a0 e9 2b 87 be 0c 07 d9 3d c1 24 86 bf dc 92 bb be
       -0.26400688 0.10597047 -1.0479966 -0.36635482
0000b0 ff 1a ee bb d5 07 a6 bd 7a f6 64 3d 4e db 43 3d
       -0.007266402 -0.081069626 0.05589912 0.047816567
0000c0 36 ac 99 3d ef 64 3c be 00 01 bb 3c 93 2e 0e 3e
       0.0750355 -0.18397878 0.022827625 0.13884954
0000d0 ff cb 27 be 71 ec c5 bd e9 dd 78 be 5e 36 91 bd
       -0.16386412 -0.09664238 -0.24303402 -0.07090448
0000e0 bc df 11 3d 0b 1a 30 3e 48 a4 81 be 03 ca cc 3d
       0.03561376 0.17197435 -0.2532065 0.09999468
0000f0 c8 b6 83 bf 56 12 86 3d 26 86 81 bd bd 67 69 be
       -1.0290155 0.06546466 -0.06324415 -0.2279348
000100 b3 57 b8 3d 4e 78 3c bd 44 08 3f bf 8c e0 78 bc
       0.09001102 -0.04601317 -0.7462199 -0.015190255
000110 56 52 e8 bd ef b8 50 3c 81 ce 56 be a5 b8 5a be
       -0.11343829 0.012739404 -0.20977212 -0.21359499
000120 9e 56 7f bd 4f 51 d2 3d 41 f4 04 3e 71 63 8b bd
       -0.062338464 0.10269415 0.129838 -0.06806076
000130 b8 ea ba 3d e7 94 b0 3d 3f b0 3c bf fc 26 cb bb
       0.091268 0.08622151 -0.7370643 -0.0061997157
000140 50 dc 4e be 25 99 41 3d 9f 2f a4 bd bb 92 e9 3d
       -0.2020123 0.04726519 -0.080168955 0.1140494
000150 b1 e8 11 bc be c1 db bd e7 35 a5 bb 55 97 69 3e
       -0.008905576 -0.10730313 -0.005041826 0.22811635
000160 53 f7 d5 3d 54 9e 35 be 58 1d 73 3c 41 65 c4 3e
       0.10447564 -0.17736179 0.014838539 0.383585
000170 eb 28 11 be dd 3d 38 bf 1d b5 93 bd 70 3f 9c 3c
       -0.14175765 -0.71969396 -0.07212279 0.019073218
000180 74 85 a8 be 79 fb 98 bd da 60 b6 3d a9 12 34 3d
       -0.32914317 -0.074698396 0.08905192 0.04396311
000190 da 05 03 3d 8a 69 91 3d 30 d7 0d be ff f4 44 3d
       0.031988002 0.07100208 -0.13851619 0.04808521
0001a0 55 7d bc bd 8e fc f5 bb 32 21 d5 bc 91 bb 20 bf
       -0.09203593 -0.0075069135 -0.026016805 -0.62786204
0001b0 58 f7 62 bd 48 6f 92 be 16 6e 23 bc 05 f4 7f 3d
       -0.055411667 -0.28600526 -0.009974977 0.062488575
0001c0 ab e5 49 bf b4 53 c9 bd 55 fc 99 be e0 5a 40 be
       -0.7886607 -0.09830418 -0.30075327 -0.18784666
0001d0 1f e5 5e ba f5 dc 19 bd 0b f8 3e 3d 1b e3 76 bc
       -0.00085027696 -0.037564237 0.04662327 -0.015068795
0001e0 aa 0d dd be 92 d4 cc bd ff 17 d7 3d 0d 56 63 bd
       -0.43174487 -0.10001482 0.10502624 -0.055501986
0001f0 70 0f 70 be a1 b8 9c bd dc c4 fa be 19 b4 89 3c
       -0.23443389 -0.07652403 -0.48978317 0.01680951

fc1.weight f4 [16, 128]
000000 f6 e9 f2 3d 10 c6 ca bd a6 a9 27 be 3a 16 37 3e
       0.11861031 -0.09901059 -0.1637331 0.17879573
000010 db 78 6b be cc 77 42 be ba c9 7c 3e 69 1f a2 bd
       -0.22995321 -0.18991011 0.24686328 -0.07916147
000020 6f 52 57 bd c0 5b 9a 3e aa d0 9f be 62 bb 77 bc
       -0.05256885 0.30148125 -0.31213886 -0.015120359
000030 6b c9 0c 3e b5 34 b3 3d 35 6e 06 3e e9 87 07 bd
       0.1374871 0.087502874 0.13127978 -0.0330886
000040 91 30 6a bd 48 8e c2 be dc 58 82 be 18 2b 35 be
       -0.057175223 -0.37999177 -0.2545842 -0.1769222
000050 d1 ea 51 be 0c 3b 99 bc c9 eb 61 3d 07 93 1c 3d
       -0.20499732 -0.018704914 0.055156503 0.038226154
000060 7e 9c 8d bb 58 c8 df 3e e8 d3 a4 bd 0c 2d b8 bd
       -0.004321634 0.43707538 -0.080482304 -0.08992967
000070 2a 71 c8 3d 2c ea 1a 3e 2a 14 70 be fb 6b 8a 3d
       0.09787209 0.15128392 -0.23445192 0.06758877
000080 d1 75 22 be 85 f6 13 3e ca 90 8e 3a bf 40 a7 3c
       -0.15865256 0.14449508 0.0010876891 0.020416616
000090 83 76 d1 bd a8 e2 f3 3d 74 53 dc bd 8e 38 25 bd
       -0.102276824 0.119084656 -0.10758105 -0.040337138
0000a0 ff ef 34 be e4 d0 ed bd 0a 81 65 3e 93 53 fb bd
       -0.17669676 -0.11612108 0.22412506 -0.122718
0000b0 17 e0 8a 3e 8f 8e 75 bd ad 40 0b be 15 13 1a 3e
       0.27124092 -0.059950408 -0.1359889 0.15046342
0000c0 c0 c5 18 3f 80 30 0c 3d 56 55 08 be d9 6d 4c 3e
       0.5967674 0.03422594 -0.13313803 0.19963779
0000d0 38 d1 98 bd 4c a3 4e 3e 60 21 97 3e ac 01 95 3e
       -0.0746178 0.2017948 0.2951765 0.29102838
0000e0 bf 0e 93 bd 7f e7 58 bd e7 0a c8 3e 26 ea f3 3d
       -0.07180547 -0.052955147 0.39070818 0.11909895
0000f0 0b 58 41 3d 93 af a1 3d a5 07 c6 3e 3b 50 8b be
       0.047203105 0.07894816 0.38677707 -0.27209648
000100 af ec a8 3c 58 7b 10 bd d2 3a 3d bd df 62 95 3e
       0.020620672 -0.03527388 -0.046198674 0.29176995
000110 f5 57 eb bc 59 76 11 3e 97 f5 30 3c 69 9c 84 be
       -0.028728465 0.14205302 0.010800741 -0.2590058
000120 44 16 3a bd d0 6f 94 bd 8b 60 d6 be 35 7e 95 3d
       -0.04543139 -0.07247889 -0.4187053 0.07299463
000130 06 ff 07 be f3 27 31 bd e2 70 41 be 4a bf f0 3d
       -0.13280877 -0.04325099 -0.18890718 0.117552355
000140 42 aa 24 be 71 c5 ed 3d 59 37 69 3e f1 fb 00 3d
       -0.16080573 0.116099246 0.2277502 0.03149027
000150 0a 28 8a bd 3e a3 7c 3c 4e db b3 3d 10 02 48 be
       -0.06745918 0.015419779 0.087820634 -0.19532037
000160 09 c6 26 bd 63 07 9a 3d 58 0b 2a 3d 45 10 b8 3d
       -0.040716205 0.0752094 0.041514724 0.08987478
000170 ac bc 0c 3d c9 7b 00 3d 0a 1c 31 3e 70 2d 2d be
       0.03435962 0.03136805 0.17295852 -0.16911864
000180 10 2f fc 3e 30 37 4d bb 0e 37 c5 3d 8d 29 8c be
       0.49254656 -0.0031313412 0.096296415 -0.2737545
000190 3e ac f1 bd 14 f1 78 3e 59 f3 fa 3d 09 75 d8 3c
       -0.11800431 0.24310714 0.12253446 0.026422994
0001a0 df b5 49 3e 58 e0 77 be 9a f8 14 bf 78 2b 6e 3e
       0.19698285 -0.24206674 -0.58191836 0.2325877
0001b0 6e 70 da 3e 07 18 ef bc 92 f3 86 bd 60 6a 32 be
       0.42663902 -0.029186262 -0.06589426 -0.17423391
0001c0 cb ef b2 bc db fe ad bc 77 62 86 3c 6d 7e ee be
       -0.021842858 -0.021239689 0.016404374 -0.4658083
0001d0 72 25 19 be 73 96 01 b9 f3 8c 01 3e 6e 59 73 3d
       -0.1495569 -0.00012358445 0.12651424 0.05941146
0001e0 ed a6 59 be 03 b6 82 3c cc 65 80 3e b5 b6 9a 3e
       -0.21255083 0.01595593 0.25077665 0.3021752
0001f0 67 92 f2 bd 04 6e b3 bd 1e a3 00 be 13 eb 11 3d
       -0.1184433 -0.08761218 -0.12562224 0.035624575
000200 25 3a dd bd 23 14 48 bd aa ff 0c 3e 59 a9 49 3e
       -0.10802106 -0.04884733 0.13769403 0.19693507
000210 18 fe 53 be 18 d5 3b be 25 91 89 3e c3 7f 4f bd
       -0.20702398 -0.18343008 0.2686855 -0.050658952
000220 70 06 b5 bd 60 f9 99 3e 10 b7 a9 be c4 fb 08 3d
       -0.088391185 0.3007307 -0.33147478 0.033443227
000230 fe 48 c4 3e e6 b3 da 3c 48 ac b5 3d 37 bb 1d bc
       0.3833694 0.02669711 0.08870751 -0.009627155
000240 3a 78 5d bc e9 e0 8b be 07 5b 62 be 07 27 fe 3c
       -0.013517434 -0.2732003 -0.22105037 0.031024469
000250 09 ec 0e be 3e f7 dd 3b 80 b9 20 3e 1e e0 02 3e
       -0.13957228 0.0067738583 0.15695763 0.12780806
000260 6f 50 57 3d 8f 34 34 be e7 1b 7c bd a9 d3 c2 bd
       0.05256694 -0.17598175 -0.061550047 -0.09513027
000270 b7 fa 0f be f6 64 0d 3d 67 7f 22 be ed 87 c4 3d
       -0.14060484 0.034520112 -0.15868913 0.09596238
000280 57 1e 17 be d5 70 1f 3e c0 52 ee bd 41 13 4f bd
       -0.14757667 0.15570386 -0.11636877 -0.05055547
000290 f6 d8 aa 3e e4 57 05 3e 4a ec b8 bd e4 a3 5b bb
       0.33368653 0.13021809 -0.090294436 -0.0033514434
0002a0 a8 f6 0f be 99 08 da bd 31 ac 39 3e ce 9f 10 bd
       -0.14058936 -0.10646171 0.18132092 -0.03530865
0002b0 ff 9e a5 3d 43 53 11 bc 7a 28 fd bd 3d ec 9a 3c
       0.08086967 -0.008869949 -0.12361236 0.018911475
0002c0 90 df e5 3e 6b 3c 94 bd 86 66 8a bc 98 fe 76 3e
       0.44897127 -0.07238086 -0.01689459 0.24120557
0002d0 37 d2 c4 3c cd 23 c7 bd e9 b8 74 bd c9 f5 44 3e
       0.02402602 -0.09723625 -0.059746657 0.19234385
0002e0 5a 8a eb bc 83 95 e4 bc a4 af de 3e 71 77 d6 3d
       -0.028752495 -0.027903324 0.43493378 0.104720004
0002f0 c1 8c aa 3e a5 8e 0c be 01 80 a4 3d 69 f3 ca bd
       0.33310512 -0.1372629 0.08032227 -0.09909708
000300 24 40 00 3d f3 52 5e 3d 8e 37 c6 bd e8 d3 6a 3e
       0.03131117 0.054278325 -0.09678565 0.22932398
000310 10 0e 46 3e 60 02 11 3e e4 6b 30 bd 49 b3 9b bd
       0.19341302 0.14161062 -0.043071643 -0.07602555
000320 73 28 8a 3c 75 59 a6 bd c5 1a e1 be a1 a3 e4 3d
       0.01686499 -0.08122531 -0.43965736 0.11164022
000330 7c 2f 2a be fc ea 21 bc 7d b8 b8 be 6d ee a4 3e
       -0.16619676 -0.009882685 -0.36078253 0.32213154
000340 a6 b0 a4 bd c0 06 15 3e c6 2e 57 be 8a ec 90 bc
       -0.080415055 0.14553356 -0.21013936 -0.017690916
000350 ed 7e 9a bd c2 e5 0b 3e 3f f0 5c 3e 5c 0e 13 be
       -0.075437404 0.13661864 0.21576022 -0.14360946
000360 40 eb 2c 3d 9d db 40 3d 4a a6 f2 3c b5 1b 94 3d
       0.04221654 0.04708444 0.029620308 0.07231847
000370 b1 03 2d 3d 86 e8 17 3c f9 34 0a 3e 32 02 5f bd
       0.04223985 0.0092717465 0.1349677 -0.054445453
000380 df 84 ed 3e 1c 3b 0a 3d ae 9e 99 3e 38 c2 bd bd
       0.46390435 0.033747777 0.30003875 -0.0926556
000390 8e 59 2a bd 35 c3 4c 3e bf 46 bf bd 6f 20 0c 3d
       -0.041589312 0.1999634 -0.093396656 0.03421062
0003a0 0c 73 b1 3d 03 aa a8 bd a1 d4 06 3f d5 e4 e2 3d
       0.086645216 -0.08235552 0.52668196 0.110788025
0003b0 57 1f 7d 3e f0 04 3c bd 3e 5a 71 bc 1b 7e 17 be
       0.24718986 -0.045903146 -0.014730988 -0.14794199
0003c0 3b 57 0c 3e 7d f4 ec bd 73 39 60 bd 0a 24 59 be
       0.13705151 -0.1157007 -0.054742288 -0.21205154
0003d0 bc f1 3c be 4e 2a 1e be 0e ad 82 3d d1 dd ea 3d
       -0.1845159 -0.15445825 0.06380664 0.11468089
0003e0 a3 63 11 be 8e 45 0c bd 65 78 a5 3e d6 f2 8e 3e
       -0.14198165 -0.03424602 0.32318416 0.27919644
0003f0 c1 90 26 bd c1 94 24 be cf 76 45 be aa 1f f5 bd
       -0.04066539 -0.1607237 -0.19283603 -0.1196893
