models/jmu_dog_l1.pth (torch, 34762 bytes, 3 tensors)

fc0.weight f4 [128, 48]
-0.38018695 0.13448526 0.14997439 0.16118802 -0.11861359 0.17096664 -0.0036123598 0.27885264
0.5163498 -0.03379975 -0.27154854 0.0047277757 0.12759387 0.28065315 -0.11160951 0.15773669
0.0046720924 0.23324053 -0.31040505 0.25829548 0.1783704 -0.1851595 -0.36741385 0.059570756
0.10689209 0.2790498 -0.46113575 -0.28200066 -0.3645273 -0.20774722 0.065830775 0.20058747
-0.13386782 0.13276705 0.058676265 -0.19105266 0.20915739 0.21835619 -0.4241637 -0.2112116
-0.1303456 -0.012552374 0.13167015 0.039846066 -0.23525736 0.6003918 0.26775435 -0.22446315
0.12514389 -0.15298624 0.23338667 0.03712364 0.41171157 0.061904587 -0.2782074 -0.27467236
-0.5017628 -0.004030375 0.013790696 0.14525281 0.1743458 0.34903526 -0.11550685 -0.12808032
0.13063525 -0.038096283 -0.26408485 -0.22867762 0.037075773 -0.1523147 -0.141713 -0.15090252
0.013991215 0.1392489 -0.07420048 0.09428914 -0.2880832 0.10595811 0.31404597 -0.05626493
0.04197434 0.24725725 0.07825948 -0.046215978 0.25915322 0.16906558 0.067262396 -0.46198225
-0.37220153 -0.49229383 -0.004238829 -0.22009417 -0.065349765 0.14779848 -0.43886843 0.14595148
-0.42993325 0.03810804 -0.14084841 0.082317084 0.3218842 0.1438063 -0.044286776 0.18685532
0.20764267 0.21262676 -0.1429671 0.29068533 -0.342872 0.29528975 -0.12463349 0.09694372
0.09945077 0.10116427 -0.033752702 -0.20436646 -0.4422094 -0.34989744 -0.15669215 0.20495275
-0.008848818 -0.13466205 -0.4988933 -0.049451973 -0.22297691 -0.13258748 -0.12884916 -0.2530457
0.24060172 -0.3168471 0.6020975 0.54986036 -0.17084607 0.5295603 0.28968847 0.19518381
0.0252419 0.21372178 0.69968396 0.15145066 0.6236636 0.18910259 0.33527175 0.3623716
-0.19710495 -0.0030382872 0.18072614 -0.1313607 0.11172767 -0.0058608823 -0.23880595 0.06709822
0.14415978 -0.02459597 -0.16965726 0.014185208 -0.24035873 -0.09817511 -0.18834238 -0.039150886
0.04638619 0.006972008 -0.47172076 -0.22891529 -0.06964375 0.19174866 0.17838815 0.0042617377
-0.033375558 -0.086617984 0.12640028 0.109576516 -0.8516315 0.27154335 0.11762841 -0.3501702
0.051338114 0.0024241013 0.20834023 -0.25102603 0.09177753 -0.2873627 0.02483673 0.03972806
-0.4882857 -0.13954689 -0.039957274 0.2541459 -0.5378457 0.35156038 -0.12669265 -0.017587839
0.0966588 0.13706861 -0.17651367 0.22994189 0.07511337 0.069797255 0.22808251 0.043610495
-0.07049068 -0.034861535 -0.1275284 -0.13807859 0.050075173 0.049220383 -0.04004484 0.19489323
-0.39087158 0.12676759 -0.17789245 0.21576732 0.015498225 0.2802277 0.068237506 -0.13582785
-0.1473998 -0.023951814 0.029589646 0.20054482 -0.4029832 0.03796344 0.02956847 0.007127412
0.12047649 -0.041242655 0.18293484 -0.085601985 -0.10018932 -0.14089799 0.0029183172 -0.06760041
0.07620495 -0.20694846 0.18858005 0.15715271 0.0814629 0.21373339 -0.099904 0.14978291
0.36064485 0.17144935 0.03053945 0.07662461 0.06547233 0.076899625 -0.0058728037 -0.24710712
0.0021401772 0.06654947 0.13910696 -0.03078894 0.04305456 -0.19593798 0.068360575 0.10412176
00000000: dda7 c2be 81b6 093e e392 193e 790e 253e
00000010: afeb f2bd e111 2f3e 57bd 6cbb c6c5 8e3e
00000020: 802f 043f 9b71 0abd 6908 8bbe 75eb 9a3b
00000030: f8a7 023e c5b1 8f3e 8793 e4bd ba85 213e
00000040: 5a18 993b 9bd6 6e3e 69ed 9ebe 4e3f 843e
00000050: bba6 363e 749a 3dbe ab1d bcbe 7700 743d
00000060: 3dea da3d 9edf 8e3e fc19 ecbe 6462 90be
00000070: 52a3 babe b0bb 54be 49d2 863d cd66 4d3e
00000080: a514 09be 16f4 073e 8656 703d 4fa3 43be
00000090: 5b2d 563e c498 5f3e fc2b d9be db47 58be
000000a0: 5179 05be 79a8 4dbc 8ad4 063e a135 233d
000000b0: 4ee7 70be 47b3 193f 1917 893e abd9 65be
000000c0: b825 003e 6da8 1cbe eafc 6e3e f50e 183d
000000d0: dccb d23e aa8f 7d3d 3371 8ebe dba1 8cbe
000000e0: 8773 00bf 3c11 84bb 5ff2 613c 27bd 143e
000000f0: b587 323e c0b4 b23e db8e ecbd 7d27 03be
00000100: 3fc5 053e d90a 1cbd 2136 87be 772a 6abe
00000110: c4dc 173d 62f8 1bbe 361d 11be 3186 1abe
00000120: 693b 653c 4397 0e3e 6cf6 97bd aa1a c13d
00000130: a47f 93be 9100 d93d a2ca a03e 0e76 66bd
00000140: 49ed 2b3d 0131 7d3e 8246 a03d f74c 3dbd
00000150: bbaf 843e 871f 2d3e dec0 893d f088 ecbe
00000160: 3391 bebe f00d fcbe e0e5 8abb 5e60 61be
00000170: 19d6 85bd 7c58 173e 5db3 e0be 4e74 153e
00000180: 3620 dcbe 2d17 1c3d 913a 10be dc95 a83d
00000190: 02ce a43e f541 133e 0d66 35bd 0057 3f3e
000001a0: 48a0 543e d4ba 593e f865 12be b5d4 943e
000001b0: eb8c afbe 3830 973e d83f ffbd 6e8a c63d
000001c0: d8ac cb3d 362f cf3d 4640 0abd 7145 51be
000001d0: 4569 e2be c225 b3be e873 20be 22df 513e
000001e0: a2fa 10bc d9e4 09be f16e ffbe 278e 4abd
000001f0: 0f54 64be 03c5 07be 09f1 03be 358f 81be
00000200: 4c60 763e c839 a2be 1023 1a3f a6c3 0c3f
00000210: 46f2 2ebe 4491 073f 0c52 943e 44de 473e
00000220: 1ac8 ce3c e2d9 5a3e 7d1e 333f e215 1b3e
00000230: 6ba8 1f3f 1ca4 413e bda8 ab3e c588 b93e
00000240: e1d5 49be 001e 47bb 4610 393e 6b83 06be
00000250: 7ad1 e43d a50c c0bb 8c89 74be cb6a 893d
00000260: 9f9e 133e 7d7d c9bc a2ba 2dbe 1369 683c
00000270: 9920 76be 0810 c9bd d3dc 40be ae5c 20bd
00000280: 72ff 3d3d 7175 e43b 6285 f1be c568 6abe
00000290: 62a1 8ebd c359 443e 62ab 363e 0ca6 8b3b
000002a0: cfb4 08bd c564 b1bd 136f 013e a769 e03d
000002b0: 8604 5abf bb07 8b3e 2ae7 f03d 8249 b3be
000002c0: ea47 523d acdd 1e3b 2457 553e 7c86 80be
000002d0: dcf5 bb3d 3421 93be 6676 cb3c e4b9 223d
000002e0: 9500 fabe 61e5 0ebe 3daa 23bd 691f 823e
000002f0: 41b0 09bf b9ff b33e b8bb 01be 5f14 90bc
00000300: 0df5 c53d b75b 0c3e 00c0 34be e375 6b3e
00000310: 0ad5 993d ddf1 8e3d 768e 693e eba0 323d
00000320: 6b5d 90bd f8ca 0ebd ce96 02be 7964 0dbe
00000330: a01b 4d3d 509b 493d 0f06 24bd 1792 473e
00000340: 5220 c8be 5dcf 013e 7029 36be 1cf2 5c3e
00000350: 44ec 7d3c 017a 8f3e 1bc0 8b3d 7516 0bbe
00000360: f9ef 16be 9836 c4bc fc65 f23c 9f5b 4d3e
00000370: d053 cebe 8d7f 1b3d 9339 f23c 118d e93b
00000380: 61bc f63d 0fee 28bd 4553 3b3e 1850 afbd
00000390: 0f30 cdbd 9047 10be 3d41 3f3b 1572 8abd
000003a0: 5711 9c3d 4cea 53be 211b 413e a4ec 203e
000003b0: 05d6 a63d eddc 5a3e 789a ccbd b160 193e
000003c0: 71a6 b83e 6b90 2f3e de2d fa3c 5ded 9c3d
000003d0: 5b16 863d 8d7d 9d3d a670 c0bb a609 7dbe
000003e0: 3742 0c3b 174b 883d 0e72 0e3e 1639 fcbc
000003f0: fa59 303d f7a3 48be a100 8c3d ca3d d53d

fc0.bias f4 [128]
-0.23594685 0.0024089315 -0.12181758 0.009215906 -0.66878194 -0.50557274 -0.014756386 -0.01312259
0.028051462 0.083397314 -0.041870277 -0.35714385 -0.17309736 -0.08570163 0.08724424 -0.12939598
-0.28686365 0.044829912 -0.17899343 -0.15486465 -0.011777268 0.044528645 0.040309206 0.08268811
0.06540205 0.001080478 -0.19264828 -0.36487412 0.17090234 0.034338046 -0.35577664 0.020298142
0.013283238 -0.12534446 -0.15881084 -0.081002325 -0.27882257 0.12923144 -0.14288409 -0.21586342
-0.20949307 0.0928709 -0.6463128 -0.3147559 -0.016351795 -0.07325277 -0.084652774 0.033634428
0.06674093 -0.23317607 0.008577167 0.059553523 -0.13450068 -0.057584923 -0.22700481 -0.13472722
0.015896356 0.15351774 -0.5221646 0.041749183 -0.7039895 0.03598301 0.00077785394 -0.14068641
0.048873194 -0.044880416 -0.6094577 -0.0771717 -0.09507309 0.14588943 -0.20176722 -0.12320273
-0.027653417 0.08361953 0.08570968 -0.034124397 0.021077475 0.084638126 -0.6046568 0.02605507
-0.11918955 0.09084457 -0.025383746 0.07028949 -0.010844949 -0.21048912 -0.041742723 0.22270016
0.054388028 -0.019355532 0.09999904 0.29905346 -0.22035097 -0.50158215 -0.07816907 -0.05117812
-0.3088892 -0.08642565 -0.10104025 -0.087209366 0.035520777 -0.012764984 -0.104238644 0.047883946
0.017293595 -0.04804932 -0.013925825 -0.6890741 -0.07203177 -0.2682073 -0.02090665 0.033658426
-0.6040995 -0.037766673 -0.34404227 -0.053878646 0.06874889 -0.04966955 0.10171872 0.007813419
-0.2982773 -0.10020724 0.12993108 -0.09496377 -0.31873098 -0.013108226 -0.5093937 0.012997651
00000000: 0d9c 71be 2adf 1d3b 7f7b f9bd 50fe 163c
00000010: 4b35 2bbf 376d 01bf c5c4 71bc 2200 57bc
00000020: 2ecc e53c 36cc aa3d 2b80 2bbd 8fdb b6be
00000030: 6f40 31be 5684 afbd 1cad b23d 6180 04be
00000040: cbdf 92be 929f 373d 0e4a 37be d794 1ebe
00000050: 71f5 40bc ab63 363d 441b 253d 6258 a93d
00000060: 83f1 853d d39e 8d3a 9745 45be c8d0 babe
00000070: 0601 2f3e 0da6 0c3d 5b28 b6be 4a48 a63c
00000080: f0a1 593c 4c5a 00be 4f9f 22be 8ce4 a5bd
00000090: d5c1 8ebe 3f55 043e 3550 12be 4d0b 5dbe
000000a0: 5a85 56be 1933 be3d c174 25bf af27 a1be
000000b0: 33f4 85bc 8c05 96bd 6f5e adbd 41c4 093d
000000c0: 78af 883d b5c5 6ebe 3f87 0c3c 65ee 733d
000000d0: 8cba 09be 2bde 6bbd f373 68be eff5 09be
000000e0: 1339 823c c133 1d3e 94ac 05bf 3101 2b3d
000000f0: a838 34bf ec62 133d e5e8 4b3a 1910 10be
00000100: 422f 483d 87d4 37bd 6b05 1cbf 320c 9ebd
00000110: aeb5 c2bd 0a64 153e 119c 4ebe b751 fcbd
00000120: 6b89 e2bc b740 ab3d 8f88 af3d 06c6 0bbd
00000130: abaa ac3c c156 ad3d caca 1abf 7171 d53c
00000140: a719 f4bd b80c ba3d 93f1 cfbc f0f3 8f3d
00000150: 03af 31bc 768a 57be 6bfa 2abd 830b 643e
00000160: fbc5 5e3d 7e8f 9ebc 4ccc cc3d 891d 993e
00000170: afa3 61be b067 00bf 1b17 a0bd 26a0 51bd
00000180: ba26 9ebe eeff b0bd 31ee cebd d39a b2bd
00000190: 3c7e 113d 3924 51bc 127b d5bd f521 443d
000001a0: 4cab 8d3c 5dcf 44bd 2529 64bc 2967 30bf
000001b0: 6585 93bd 7852 89be 6c44 abbc 6bdd 093d
000001c0: 44a6 1abf 3ab1 1abd 4f26 b0be dbaf 5cbd
000001d0: 38cc 8c3d 4c72 4bbd e751 d03d db03 003c
000001e0: cdb7 98be 7439 cdbd a70c 053e 5d7c c2bd
000001f0: b530 a3be e2c3 56bc a067 02bf 19f4 543c

fc1.weight f4 [16, 128]
-0.05294354 -0.025031695 -0.073989816 0.13651074 -0.24468538 -0.28818446 0.060460642 -0.1305807
-0.139964 0.38080752 -0.09835034 -0.09437465 -0.0054162587 0.14619274 0.014414761 0.031544607
-0.31671065 -0.28904447 -0.11421274 -0.19578147 -0.15428202 -0.016839972 0.03425341 0.038364537
0.04977382 0.33667699 -0.010565037 -0.17663167 0.32855487 -0.06442407 -0.17060483 -0.042418536
-0.089431375 0.0012958345 -0.02172297 0.06066641 0.025603183 -0.23133586 -0.014196227 -0.102266654
-0.3066978 -0.1102626 0.28457183 -0.016995165 0.2766531 0.1727282 -0.16930681 0.13016556
0.33470643 0.058392484 -0.07512449 0.0050596646 -0.04796222 0.4082599 0.061151057 0.058466725
-0.11845883 -0.13824491 0.1959414 0.16805816 0.009855565 0.11947298 0.22359517 -0.21934676
0.07295703 -0.0758274 0.094806984 0.27707058 -0.04325408 0.02447495 0.145297 -0.15931731
-0.048199568 0.024579674 -0.31707692 0.017430257 -0.000285349 -0.14356716 0.004372253 0.13836426
-0.15834624 0.09575878 0.27689463 0.0329972 -0.036897186 0.0064873574 -0.051691532 -0.23487078
-0.19434921 0.103068866 -0.0155499065 0.07549627 0.5003631 0.27932084 0.11476199 -0.025930952
0.25821322 -0.13188612 0.4931205 -0.21735893 -0.09211438 0.038977206 0.18616481 -0.015150966
0.13103007 0.030099984 -0.50115794 0.20572369 0.034179047 -0.09079495 -0.12940012 -0.043632172
-0.104135156 -0.06873858 -0.13898946 -0.26879275 0.047680456 -0.08022565 0.18233024 -0.0029823591
-0.22116974 -0.046532106 0.19010963 0.29130557 -0.046508618 0.011064978 -0.21016027 -0.028725846
-0.17759359 0.005930453 0.29924968 0.09918975 -0.1857594 -0.31126973 0.099094376 -0.01580708
0.002051104 0.307413 -0.08476036 -0.051862713 0.2509618 0.052357204 0.047844063 -0.012359733
-0.30534998 -0.19107847 -0.23890406 0.17886227 -0.0972009 0.05752819 0.18483181 0.11222118
-0.014278516 0.17440242 -0.17021836 -0.26328456 0.022016056 -0.11740501 0.07858143 0.07748664
-0.15083113 0.2431866 -0.15542603 -0.22090031 0.29066172 -0.060672943 -0.027711378 0.016040644
-0.3182241 0.016356014 0.026755055 0.0093240375 0.18211916 0.4182655 -0.20307137 0.042683057
0.2673528 -0.05042899 -0.020073611 0.047057427 0.06641322 -0.26358443 0.08114649 -0.21851544
-0.07426303 -0.2455699 0.2723321 0.0860062 0.15746436 -0.21089916 -0.26663476 -0.12375444
0.124259934 0.06040951 -0.06523846 0.15743226 -0.0047151917 0.053546272 0.14891455 -0.0065285643
-0.11274202 -0.028142747 -0.45164266 0.12296141 -0.024309762 0.0008436449 -0.18477412 0.01800223
-0.14048989 0.1642015 -0.19139682 0.0774512 -0.034045614 0.086923994 0.12206388 -0.2155358
0.053376094 0.17918964 0.15009065 0.07658455 -0.30646083 -0.09304735 0.20329452 -0.04660651
0.2466262 -0.13742173 0.429957 0.024701577 -0.029812587 -0.0063637192 0.022314694 0.04837148
0.16773024 0.28037924 0.43881792 0.15999861 -0.04187917 -0.09711883 0.009001209 0.015774544
0.12058065 0.07031054 -0.030639946 0.017870955 0.0067675803 -0.24880289 0.027336134 0.099435896
-0.035412665 0.21273743 0.21133408 0.34840712 -0.103075124 0.20949064 -0.23675534 -0.061345916
00000000: 53db 58bd 450f cdbc f987 97bd 79c9 0b3e
00000010: ce8e 7abe ea8c 93be 94a5 773d f2b6 05be
00000020: b952 0fbe 34f9 c23e e76b c9bd 7f47 c1bd
00000030: df7a b1bb 8db3 153e e42b 6c3c eb34 013d
00000040: e627 a2be a3fd 93be 5ee8 e9bd f07a 48be
00000050: 1bfc 1dbe fbf3 89bc 4e4d 0c3d 2224 1d3d
00000060: a2df 4b3d ed60 ac3e fa18 2dbc efde 34be
00000070: 5838 a83e c4f0 83bd 08b3 2ebe 0fbf 2dbd
00000080: cc27 b7bd fed8 a93a 5ff4 b1bc 577d 783d
00000090: c4bd d13c 4fe3 6cbe 4b97 68bc 2e71 d1bd
000000a0: 7e07 9dbe 5cd1 e1bd 66b3 913e 7239 8bbc
000000b0: 7aa5 8d3e a9df 303e c45e 2dbe 1f4a 053e
000000c0: a45e ab3e f52c 6f3d deda 99bd 8bcb a53b
000000d0: 0874 44bd 7107 d13e 8879 7a3d ce7a 6f3d
000000e0: 8b9a f2bd 1390 0dbe dda4 483e 7017 2c3e
000000f0: 3c79 213c 40ae f43d 22f6 643e 709c 60be
00000100: 7f6a 953d 654b 9bbd 2a2a c23d 32dc 8d3e
00000110: 312b 31bd b17f c83c bdc8 143e 1424 23be
00000120: e96c 45bd 505b c93c e857 a2be e6c9 8e3c
00000130: e59a 95b9 4503 13be 1e45 8f3b 5caf 0d3e
00000140: 8425 22be 2e1d c43d 22c5 8d3e 1228 073d
00000150: 8121 17bd e693 d43b 80ba 53bd f781 70be
00000160: 7b03 47be c515 d33d 09c5 7ebc ca9d 9a3d
00000170: cc17 003f 2403 8f3e 5608 eb3d 266d d4bc
00000180: 8634 843e 280d 07be 4a7a fc3e 5793 5ebe
00000190: 77a6 bcbd 90a6 1f3d fda1 3e3e c23b 78bc
000001a0: bf2c 063e 3e94 f63c e34b 00bf 3ba9 523e
000001b0: 54ff 0b3d b4f2 b9bd 7781 04be a6b7 32bd
000001c0: d044 d5bd d0c6 8cbd 4153 0ebe 349f 89be
000001d0: 954c 433d 584d a4bd c7b4 3a3e af73 43bb
000001e0: 527a 62be 7398 3ebd 19ac 423e 0126 953e
000001f0: d27f 3ebd e249 353c 4134 57be 7752 ebbc
00000200: 18db 35be 3f54 c23b 4137 993e ff23 cb3d
00000210: b637 3ebe bf5e 9fbe fef1 ca3d d97d 81bc
00000220: d16b 063b 3d65 9d3e d796 adbd ff6d 54bd
00000230: 117e 803e 8274 563d 23f8 433d 7a80 4abc
00000240: d556 9cbe 13aa 43be 44a3 74be ac27 373e
00000250: 4411 c7bd aea2 6b3d 8d44 3d3e 38d4 e53d
00000260: 70f0 69bc 8c96 323e b94d 2ebe 3ccd 86be
00000270: 045b b43c 0a72 f0bd 4def a03d 51b1 9e3d
00000280: 7a73 1abe e805 793e 0028 1fbe b133 62be
00000290: 9dd1 943e 3184 78bd f902 e3bc ab67 833c
000002a0: 45ee a2be 0cfd 853c 6b2d db3c d9c3 183c
000002b0: 727d 3a3e e526 d63e f1f1 4fbe 6ed4 2e3d
000002c0: 77e2 883e a18e 4ebd 6a71 a4bc 4abf 403d
000002d0: a703 883d 8af4 86be 2230 a63d 83c2 5fbe
000002e0: 3717 98bd ad76 7bbe 1d6f 8b3e 0524 b03d
000002f0: 563e 213e f3f5 57be 5a84 88be f872 fdbd
00000300: fe7b fe3d f66f 773d be9b 85bd ec35 213e
00000310: e581 9abb 5653 5b3d 0e7d 183e 91ed d5bb
00000320: 4ae5 e6bd 9e8b e6bc b53d e7be 31d3 fb3d
00000330: 4425 c7bc 0d28 5d3a 6d35 3dbe 6a79 933c
00000340: 95dc 0fbe 7024 283e 87fd 43be bc9e 9e3d
00000350: 6a73 0bbd 3505 b23d a1fc f93d 6bb5 5cbe
00000360: e4a0 5a3d 7d7d 373e 5db1 193e 5cd8 9c3d
00000370: 6fe8 9cbe 9c8f bebd 702c 503e 78e6 3ebd
00000380: 948b 7c3e 48b8 0cbe 5323 dc3e f65a ca3c
00000390: 8739 f4bc bf86 d0bb 4ecd b63c 2c21 463d
000003a0: 7ac1 2b3e de8d 8f3e beac e03e add6 233e
000003b0: 7e89 2bbd 3de6 c6bd cf79 133c 9e39 813c
000003c0: fdf2 f63d f9fe 8f3d a000 fbbc 1c66 923c
000003d0: 94c2 dd3b 2fc6 7ebe 07f0 df3c 0ca5 cb3d
000003e0: df0c 11bd d7d7 593e f667 583e 6b62 b23e
000003f0: 0d19 d3bd b784 563e fe6f 72be db45 7bbd
