models/kirby.pth (torch, 34762 bytes, 3 tensors)

fc0.weight f4 [128, 48]
0.19892785 0.11047866 -0.2062924 -0.06652392 0.07750302 -0.16805933 0.073484965 0.035979033
0.1929683 0.2562504 -0.06658184 -0.021596145 -0.30663538 0.15428948 0.009859141 -0.019391654
-0.0054567005 -0.012921033 0.041058857 0.31574655 0.25421342 -0.50895053 0.15544087 0.026215378
0.08725383 0.48988315 -0.074354306 -0.035076395 0.15533602 -0.31805655 0.28079444 -0.111431085
-0.047954906 -0.3132542 -0.1711377 0.10762212 -0.016111193 0.06524692 0.1598067 -0.04589352
0.07601061 0.13088828 0.10199319 0.028707858 -0.019851383 -0.10477451 -0.07570167 -0.26911438
0.12684402 0.007760599 -0.109122925 0.10303445 0.02629967 0.14711188 -0.1258103 0.0038285598
0.009504624 0.05086604 -0.23429532 -0.11587769 -0.32895443 0.11442949 0.0036299892 0.06658092
-0.09507052 -0.32838908 -0.28935167 -0.10785832 0.17407574 -0.05588443 0.046055872 -0.4522882
0.15705737 0.6149333 -0.050804093 0.009651688 0.5607675 0.052131474 -0.23089433 0.06659588
-0.034644287 0.08094481 -0.020868357 -0.22034243 -0.00044715137 0.057480164 0.027258838 0.08964061
0.360519 0.018720174 -0.07078255 -0.16982862 0.15863058 -0.0154254045 0.17846677 0.0090543525
-0.060518995 -0.08913081 -0.049362965 -0.0019415754 -0.062274627 0.12465439 0.046842325 0.04235757
0.12679769 0.21959296 -0.098350115 -0.08618784 0.062003914 -0.0917847 0.1661866 -0.04142442
0.016333716 -0.48884043 -0.22464986 0.021531155 0.022716528 -0.15377374 0.096591175 -0.26465413
0.0060828417 -0.03726663 0.506561 0.16767123 0.33817428 0.07607924 -0.14174639 -0.47836515
-0.13451882 0.15462439 0.09000833 -0.15759441 -0.06097105 -0.049903594 0.013051433 -0.04212192
-0.013013658 -0.11421183 0.24034743 0.012224185 0.16162154 0.122739196 -0.028791096 0.03240454
-0.1147684 0.02273565 -0.010424311 0.010221406 0.17992692 0.045160692 -0.07127275 -0.002891744
0.0621765 0.07500345 0.046285234 -0.18344411 0.13732144 -0.22052586 -0.189835 0.052144606
-0.15038179 -0.017102856 -0.25320405 0.12942788 -0.1528592 0.086453766 0.09631068 0.14775012
0.14566155 -0.10897227 0.13954142 0.4233785 -0.22919951 -0.044730306 -0.12633559 -0.19177389
0.00019310025 0.18416663 0.047441404 0.27405322 0.101117626 -0.42200753 -0.016808819 -0.23092963
0.11659976 0.1438828 0.014673013 0.2740984 0.07563022 0.30206797 -0.18264313 -0.03552809
-0.005641582 -0.18547052 -0.10518939 -0.21278475 0.08394428 -0.18844229 -0.06961152 0.032219905
-0.18898796 -0.03461935 -0.247091 -0.11229785 -0.031983923 -0.11181142 -0.014555256 -0.005643035
-0.120632686 -0.12527463 0.0068874885 -0.07795508 -0.21714558 0.13302849 0.12443753 0.1683043
0.04930548 0.18849659 0.13441382 0.20864594 0.08630464 0.25574824 0.03556009 0.23201127
-0.20150398 0.013550279 -0.21925893 -0.25562742 -0.26492703 -0.49172217 -0.13504937 -0.0046891426
0.16132076 -0.2061159 0.080770336 0.08429686 -0.3096186 0.14192398 -0.35891843 0.016853232
0.009149114 0.024336576 0.16099109 -0.027591806 -0.08066517 -0.16701461 -0.1600652 0.06687536
0.007286239 -0.13550745 -0.10598401 -0.21839604 -0.17397642 -0.093704246 0.0850908 -0.13710648
00000000: beb3 4b3e a342 e23d 513e 53be b13d 88bd
00000010: e7b9 9e3d bf17 2cbe 497f 963d c05e 133d
00000020: 7b99 453e 4133 833e 0f5c 88bd 66ea b0bc
00000030: 50ff 9cbe 10fe 1d3e 3c88 213c 3fdb 9ebc
00000040: 1fce b2bb beb2 53bc 552d 283d 88a9 a13e
00000050: 4328 823e 954a 02bf e42b 1f3e a2c1 d63c
00000060: 23b2 b23d f7d1 fa3e 1247 98bd 44ac 0fbd
00000070: 6810 1f3e 4fd8 a2be 4ac4 8f3e fb35 e4bd
00000080: 5d6c 44bd db62 a0be b93e 2fbe fc68 dc3d
00000090: 9ffb 83bc 2da0 853d 5ea4 233e d8fa 3bbd
000000a0: 73ab 9b3d 9407 063e cee1 d03d be2c eb3c
000000b0: 5e9f a2bc 0594 d6bd 7a09 9bbd 5cc9 89be
000000c0: 66e3 013e 9f4c fe3b d77b dfbd ba03 d33d
000000d0: 6872 d73c 7fa4 163e 6ad4 00be 93e8 7a3b
000000e0: 48b9 1b3c e958 503d 1deb 6fbe 4851 edbd
000000f0: b76c a8be 025a ea3d 1de5 6d3b 945b 883d
00000100: 55b4 c2bd 9d22 a8be e725 94be d3e4 dcbd
00000110: e940 323e 12e7 64bd 15a5 3c3d 5292 e7be
00000120: a6d3 203e 456c 1d3f f417 50bd 1d22 1e3c
00000130: 758e 0f3f d087 553d 906f 6cbe 6c63 883d
00000140: 2be7 0dbd 64c6 a53d 1ef4 aabc 72a1 61be
00000150: a46f eab9 5270 6b3d ed4d df3c 7f95 b73d
00000160: f295 b83e 0d5b 993c 71f6 90bd 8ee7 2dbe
00000170: 0e70 223e d6ba 7cbc febf 363e b558 143c
00000180: c4e2 77bd 378a b6bd d230 4abd 767c feba
00000190: ae13 7fbd cd4a ff3d bddd 3f3d 227f 2d3d
000001a0: 41d7 013e fadc 603e c96b c9bd 4083 b0bd
000001b0: d1f7 7d3d 9ef9 bbbd d22c 2a3e a7ac 29bd
000001c0: 49ce 853c 4b49 fabe 9d0a 66be 1b62 b03c
000001d0: 0318 ba3c dd76 1dbe 98d1 c53d bf80 87be
000001e0: 9352 c73b e5a4 18bd fbad 013f 02b2 2b3e
000001f0: 2e25 ad3e 6fcf 9b3d f725 11be 47ec f4be
00000200: 4dbf 09be db55 1e3e 4a56 b83d 6e60 21be
00000210: c8bc 79bd b667 4cbd add5 553c 0988 2cbd
00000220: 3d37 55bc e4e7 e9bd a31d 763e f347 483c
00000230: 1e80 253e b05e fb3d 4edb ebbc 9fba 043d
00000240: b20b ebbd 1d40 ba3c bbca 2abc af77 273c
00000250: c33e 383e 6bfa 383d 73f7 91bd 6a83 3dbb
00000260: c9ac 7e3d 699b 993d 9695 3d3d c6d8 3bbe
00000270: fe9d 0c3e 88d1 61be 1b64 42be 9595 553d
00000280: affd 19be 4a1b 8cbc f6a3 81be be88 043e
00000290: 1f87 1cbe ac0e b13d 893e c53d cf4b 173e
000002a0: 4d28 153e da2c dfbd f2e3 0e3e 11c5 d83e
000002b0: 47b3 6abe 2037 37bd 1e5e 01be 6060 44be
000002c0: f47a 4a39 2d96 3c3e eb51 423d b450 8c3e
000002d0: c216 cf3d 5f11 d8be a6b2 89bc d178 6cbe
000002e0: dbcb ee3d 0356 133e 1467 703c a056 8c3e
000002f0: 04e4 9a3d a7a8 9a3e cd06 3bbe e785 11bd
00000300: 05dd b8bb fceb 3dbe 896d d7bd 3fe4 59be
00000310: fbea ab3d 04f7 40be 7c90 8ebd 05f9 033d
00000320: 0f86 41be 05cd 0dbd 6c05 7dbe 6afc e5bd
00000330: 9301 03bd 63fd e4bd 2b79 6ebc 35e9 b8bb
00000340: 450e f7bd fe47 00be 71b0 e13b eaa6 9fbd
00000350: 695b 5ebe 9f38 083e 1bd9 fe3d f657 2c3e
00000360: 8bf4 493d 4005 413e c7a3 093e 48a7 553e
00000370: 7dc0 b03d 6ff1 823e 75a7 113d 5d94 6d3e
00000380: 0f57 4ebe fd01 5e3c 6a85 60be 99e1 82be
00000390: 84a4 87be 02c3 fbbe 624a 0abe 61a7 99bb
000003a0: 4531 253e 0c10 53be eb6a a53d d5a3 ac3d
000003b0: 5486 9ebe 8554 113e 28c4 b7be ca0f 8a3c
000003c0: 2ae6 153c 805d c73c d9da 243e 3608 e2bc
000003d0: c833 a5bd e105 2bbe 22e8 23be f3f5 883d
000003e0: 67c1 ee3b 77c2 0abe 250e d9bd 36a3 5fbe
000003f0: e026 32be 03e8 bfbd 1644 ae3d a465 0cbe

fc0.bias f4 [128]
0.053378012 0.11571987 0.05735194 -0.06396873 -0.0061699566 0.014614048 -0.05098475 -0.04789796
-0.040595423 -0.00091793423 0.090950035 0.008776545 -0.0684123 0.043542556 -0.050087605 -0.031663332
-0.02302811 -0.008244129 0.021644907 -0.04102371 -0.026423426 0.013655564 -0.06615805 -0.24484426
-0.0036899417 -0.38518363 -0.05532833 -0.091139816 0.033441532 -0.3008838 0.03766408 0.042320643
0.01182087 0.058098566 -0.020619184 0.03395709 -0.029295128 0.035689116 -0.16293485 -0.099150024
-0.046570208 -0.15060803 -0.01768167 -0.17158842 -0.0060809134 -0.046223808 0.005966254 0.19967067
0.008519103 0.029207185 -0.050823025 0.026700096 0.1562164 -0.029943861 0.032864477 0.030748768
0.04121253 -0.010052072 0.0060230778 0.036850672 -0.16430634 -0.005498715 0.03201271 -0.05548113
-0.030787356 -0.34040734 -0.10334287 -0.10903544 -0.3115963 -0.31094104 -0.28361958 0.01612536
0.0007147269 -0.04919157 -0.022380253 -0.10952639 -0.26166663 0.13012654 0.004079729 0.017569931
-0.04476695 0.08767367 0.056016207 -0.023293268 0.051592015 -0.25572416 0.031443737 -0.023488253
-0.25743484 -0.4120793 -0.15116067 -0.089117326 -0.40634924 -0.2114443 -0.051981077 0.051808473
-0.06374544 -0.06946512 0.017837176 0.100021884 -0.23034103 -0.05004347 -0.069999635 -0.0817938
-0.032148477 -0.07806259 -0.10982629 -0.05718964 -0.06179654 -0.0035851367 0.08431965 0.022930197
-0.119281344 -0.021048483 0.029528553 -0.09577951 -0.33813253 0.060642794 -0.004494596 -0.098092966
0.016950304 -0.03470745 -0.52587 0.111781 -0.018247085 0.025161972 -0.064650305 0.059225675
00000000: e7a2 5a3d 8afe ec3d dee9 6a3d 0a02 83bd
00000010: 592d cabb c36f 6f3c 63d5 50bd a730 44bd
00000020: 6347 26bd 86a1 70ba 0344 ba3d 7fcb 0f3c
00000030: bf1b 8cbd ae59 323d a928 4dbd 69b1 01bd
00000040: 72a5 bcbc 6212 07bc a950 b13c 7a08 28bd
00000050: f175 d8bc 96bb 5f3c df7d 87bd 74b8 7abe
00000060: f3d2 71bb ca36 c5be f59f 62bd 83a7 babd
00000070: fdf9 083d 710d 9abe a645 1a3d 6958 2d3d
00000080: 53ac 413c c3f8 6d3d 90e9 a8bc 9716 0b3d
00000090: 56fc efbc c02e 123d 65d8 26be 2b0f cbbd
000000a0: 67c0 3ebd fe38 1abe 26d9 90bc e0b4 2fbe
000000b0: 6642 c7bb 2d55 3dbd 9180 c33b 7876 4c3e
000000c0: b593 0b3c e843 ef3c ce2b 50bd 29ba da3c
000000d0: 31f7 1f3e d44c f5bc e79c 063d d7e4 fb3c
000000e0: 78ce 283d 72b1 24bc 3d5d c53b bbf0 163d
000000f0: ec3f 28be 912e b4bb c21f 033d 2e40 63bd
00000100: c435 fcbc df49 aebe 6da5 d3bd f94d dfbd
00000110: 8d89 9fbe aa33 9fbe 9636 91be 5519 843c
00000120: 835c 3b3a 1a7d 49bd cb56 b7bc 5f4f e0bd
00000130: 2bf9 85be e43f 053e 3faf 853b d1ee 8f3c
00000140: 8d5d 37bd 418e b33d 4071 653d 86d1 bebc
00000150: 2652 533d 47ee 82be 26cb 003d 706a c0bc
00000160: 80ce 83be 0ffc d2be ddc9 1abe 2583 b6bd
00000170: 020d d0be db84 58be 1cea 54bd 1f35 543d
00000180: f88c 82bd bb43 8ebd 451f 923c 46d8 cc3d
00000190: 85de 6bbe 62fa 4cbd f85b 8fbd 8283 a7bd
000001a0: 1fae 03bd 47df 9fbd 9bec e0bd af3f 6abd
000001b0: 5e1e 7dbd 9df4 6abb c8af ac3d 1cd8 bb3c
000001c0: c749 f4bd de6d acbc dde5 f13c 0c28 c4bd
000001d0: b51f adbe 9464 783d 6747 93bb f7e4 c8bd
000001e0: 5ddb 8a3c 6629 0ebd 6b9f 06bf 70ed e43d
000001f0: e97a 95bc 7b20 ce3c 6167 84bd 9f96 723d

fc1.weight f4 [16, 128]
-0.13803306 -0.18465203 0.086098544 0.066261575 0.090335354 -0.1524861 -0.011127879 -0.03562148
0.13824013 -0.114789344 -0.14978367 0.14579009 0.083163925 0.056517515 -0.3041436 0.039001986
0.13923815 -0.051127285 0.54743844 -0.011332294 0.03826618 0.17198505 -0.11024899 -0.043656066
0.009018995 -0.22963208 0.15944321 -0.092937335 0.12744153 -0.2553744 0.04912134 0.0034342755
0.072720386 0.0512024 -0.010144456 0.05471837 -0.06601216 0.07966319 -0.021265704 -0.15757886
-0.060255326 -0.14350832 -0.09565032 -0.2864745 0.26579055 0.21133183 -0.032964785 -0.0451802
0.16221532 0.15891095 -0.09218252 0.1865126 0.10616812 0.08852512 -0.091653496 0.09394216
0.008369676 -0.0055085113 0.07222179 0.22750802 -0.21962509 0.02607078 0.17439878 -0.096588954
0.013473739 0.23246332 0.1654803 -0.15455809 -0.247463 -0.11783277 -0.062374998 0.028064026
-0.1841218 0.04546757 -0.02363819 -0.118909515 -0.13833864 -0.09616532 -0.02726988 0.05112008
0.016115034 -0.16266575 0.025178563 0.23541482 0.11149209 -0.169017 -0.1956367 0.046677798
-0.07944262 -0.42852828 -0.061585184 0.14960626 -0.14252341 -0.19825757 0.059884436 0.059529282
-0.09128126 0.072195925 -0.0040142275 0.009268053 0.044185422 -0.027315756 -0.03749336 0.010598815
0.091775335 0.22250868 -0.01916425 0.27237025 -0.31299117 0.044872098 0.02812923 0.18625458
-0.17753518 -0.017059404 0.1253532 -0.027265385 -0.22839534 0.15750925 -0.053500663 -0.031949483
0.18719426 0.34045407 -0.19789267 0.1341376 -0.054982457 0.15289497 0.11587929 0.07746527
-0.008493496 -0.10046629 -0.0122315725 -0.23945898 0.048196442 -0.07996181 0.17881268 0.089112625
-0.016356975 -0.12346979 -0.17780292 0.20723975 -0.19136709 0.0944458 -0.019072067 0.1882894
0.06298424 0.054223694 -0.013365355 -0.07846738 0.27720264 0.2294249 0.14501846 0.08872673
0.05535451 -0.21851623 -0.15559259 -0.23054183 0.17845124 -0.058870334 0.19314547 0.27818727
-0.3840039 0.0675226 0.1258979 -0.04770229 0.114265494 0.16883075 -0.0152234025 0.023024388
0.11448449 -0.08150369 -0.18721937 -0.16939445 -0.13562736 0.017277887 -0.06674977 0.005419064
-0.15301149 0.013718056 0.23745573 0.06106423 -0.16992857 0.21305376 -0.07754023 -0.06319272
-0.061078068 0.24602756 0.03530393 -0.017102849 -0.11966105 -0.058552776 -0.016927212 0.14926039
0.1351961 0.05970743 0.17217042 -0.08643491 -0.1513227 -0.15088955 0.030460464 0.45341295
-0.2753603 -0.1747837 -0.051004946 -0.019097682 -0.046821013 -0.117058195 0.33411902 0.08940557
-0.09029882 0.02870827 0.043081325 0.1662562 -0.108191915 -0.056255765 -0.034838058 -0.1647301
-0.0947782 0.019792903 -0.16581288 0.0051281005 -0.34189293 -0.02949938 0.04265776 -0.006997283
-0.09537225 -0.014882069 -0.15780827 -0.06574613 0.12625416 0.043962043 -0.040241968 -0.18430425
-0.0828784 0.26041463 -0.094425365 0.1249685 -0.029299699 0.029256262 0.09567326 -0.14845364
0.0045686704 0.03539741 -0.04277867 -0.015143063 -0.16037454 0.12727046 0.026582273 0.07107675
-0.18467525 -0.014759248 0.106002145 0.10074309 0.041848842 0.19575058 -0.07925145 0.08336395
00000000: 8a58 0dbe 6c15 3dbe 6f54 b03d 26b4 873d
00000010: be01 b93d 5125 1cbe b551 36bc d4e7 11bd
00000020: d28e 0d3e ad16 ebbd e460 19be ff49 153e
00000030: d951 aa3d e97e 673d b6b8 9bbe 8cc0 1f3d
00000040: 7294 0e3e d86a 51bd ed24 0c3f 16ab 39bc
00000050: ffbc 1c3d d91c 303e 39ca e1bd b4d0 32bd
00000060: 68c4 133c ac24 6bbe 1545 233e ee55 bebd
00000070: 0880 023e 6fc0 82be 7533 493d 9511 613b
00000080: 6dee 943d 9cb9 513d ef34 26bc 5f20 603d
00000090: 6231 87bd 7426 a33d 6a35 aebc 5a5c 21be
000000a0: 4ace 76bd d8f3 12be 51e4 c3bd c9ac 92be
000000b0: b315 883e 5f67 583e 1506 07bd e00e 39bd
000000c0: c61b 263e 8db9 223e 30ca bcbd 29fd 3e3e
000000d0: ac6e d93d a84c b53d d4b4 bbbd bf64 c03d
000000e0: f720 093c be80 b4bb 05e9 933d ddf7 683e
000000f0: 66e5 60be 6392 d53c 9895 323e 6ed0 c5bd
00000100: f5c0 5c3c dd0a 6e3e ab73 293e 7a44 1ebe
00000110: f166 7dbe 4f52 f1bd ed7c 7fbd 87e6 e53c
00000120: 6d8a 3cbe 343c 3a3d e1a4 c1bc d586 f3bd
00000130: a5a8 0dbe 53f2 c4bd 1565 dfbc 4a63 513d
00000140: ad03 843c da91 26be 4643 ce3c 9510 713e
00000150: f755 e43d cb12 2dbe fd54 48be 3831 3f3d
00000160: d0b2 a2bd 0f68 dbbe bf40 7cbd 6232 193e
00000170: a8f1 11be 0804 4bbe 6249 753d fad4 733d
00000180: abf1 babd 75db 933d c889 83bb 08d9 173c
00000190: c6fb 343d 4bc5 dfbc a392 19bd a7a6 2d3c
000001a0: b5f4 bb3d 51d9 633e 58fe 9cbc 1d74 8b3e
000001b0: 6140 a0be cecb 373d 456f e63c 85b9 3e3e
000001c0: c8cb 35be 2ac0 8bbc 975c 003e a85b dfbc
000001d0: 78e0 69be 1b4a 213e 8323 5bbd 76dd 02bd
000001e0: daaf 3f3e ff4f ae3e 60a4 4abe 5e5b 093e
000001f0: 4935 61bd 8090 1c3e 1f52 ed3d 1da6 9e3d
00000200: 4e28 0bbc 45c1 cdbd ef66 48bc bc34 75be
00000210: a269 453d 04c3 a3bd ac1a 373e ae80 b63d
00000220: 10ff 85bc bbdd fcbd f811 36be a836 543e
00000230: bcf5 43be cd6c c13d 063d 9cbc f0ce 403e
00000240: e2fd 803d aa19 5e3d 5dfa 5abc 81b3 a0bd
00000250: 81ed 8d3e 5cee 6a3e b87f 143e 5cb6 b53d
00000260: 69bb 623d b8c2 5fbe aa53 1fbe 2813 6cbe
00000270: ecbb 363e 0522 71bd edc7 453e 906e 8e3e
00000280: 299c c4be 4a49 8a3d 61eb 003e 7a63 43bd
00000290: 0704 ea3d f8e1 2c3e 946b 79bc a49d bc3c
000002a0: d876 ea3d 68eb a6bd 6fb6 3fbe bd75 2dbe
000002b0: e6e1 0abe 5b8a 8d3c 1ab4 88bd 6792 b13b
000002c0: 0baf 1cbe b2c1 603c 9827 733e 7c1e 7a3d
000002d0: c101 2ebe c42a 5a3e 69cd 9ebd 2f6b 81bd
000002e0: ff2c 7abd a6ee 7b3e db9a 103d 461b 8cbc
000002f0: da10 f5bd 09d5 6fbd f0aa 8abc b7d7 183e
00000300: d970 0a3e c78f 743d 714d 303e c904 b1bd
00000310: 56f4 1abe ca82 1abe 3988 f93c be25 e83e
00000320: 06fc 8cbe 80fa 32be 90ea 50bd be72 9cbc
00000330: 64c7 3fbd 35bc efbd a611 ab3e 441a b73d
00000340: 96ee b8bd 9b2d eb3c 0b76 303d 113f 2a3e
00000350: b993 ddbd 726c 66bd 5ab2 0ebd 02af 28be
00000360: 131b c2bd ba24 a23c daca 29be a009 a83b
00000370: 970c afbe afa8 f1bc e7b9 2e3d 7749 e5bb
00000380: 8752 c3bd ecd3 73bc 7e98 21be e8a5 86bd
00000390: c548 013e 8b11 343d c3d4 24bd 41ba 3cbe
000003a0: 27bc a9bd 1155 853e 1662 c1bd 7cef ff3d
000003b0: ec05 f0bc d4aa ef3c 58f0 c33d 3b04 18be
000003c0: c9b4 953b e0fc 103d b038 2fbd 9c1a 78bc
000003d0: 3939 24be 3053 023e 11c3 d93c b090 913d
000003e0: 821b 3dbe c6d0 71bc a717 d93d 6552 ce3d
000003f0: b169 2b3d d772 483e 964e a2bd b8ba aa3d
