models/liz_to_smile.pth (torch, 34762 bytes, 3 tensors)

fc0.weight f4 [128, 48]
0	0xbe067601	-0.13130952
1	0x3dd412a1	0.10355116
2	0x3e3dc02d	0.1853034
3	0x3e0f585f	0.13998555
4	0xbe32950a	-0.17439666
5	0x3e7d766f	0.2475221
6	0x3c899204	0.016793258
7	0x3dc03bd8	0.09386414
8	0x3e26e1e2	0.16297105
9	0x3c1f88eb	0.009737234
10	0xbecef348	-0.40419984
11	0xbc9493ea	-0.018136937
12	0xbb0cfb2b	-0.0021512012
13	0x3e5ef508	0.2177316
14	0xbe05f109	-0.13080229
15	0x3ca885d8	0.020571634
16	0x3e052c8c	0.13005275
17	0x3e28b2bc	0.16474432
18	0xbeb5ad9f	-0.35484025
19	0x3e6f5ee0	0.23376036
20	0x3e8123cf	0.25222632
21	0xbe5ceab2	-0.21573904
22	0xbdf7eb34	-0.12105408
23	0x3c40ae70	0.011760339
24	0x3d8e50cb	0.06949004
25	0x3dfd9f11	0.12383855
26	0xbdcdb3ea	-0.100440815
27	0xbd9fbff7	-0.07800286
28	0xbef72b74	-0.4827534
29	0x3e1657a1	0.14681865
30	0x3e02dc14	0.12779266
31	0x3e3706fa	0.17873755
32	0xbdbb1fb5	-0.09136907
33	0x3cbd1a06	0.023083698
34	0xbd0f972c	-0.035056278
35	0xbe6a07f9	-0.22854604
36	0x3d3f2bdc	0.046672687
37	0x3e383da2	0.17992261
38	0xbe4fc07c	-0.2028827
39	0xbea86dad	-0.32896176
40	0xbbc0e434	-0.005886579
41	0x3d1e081f	0.038581964
42	0xbdb93562	-0.09043385
43	0x3e05582a	0.13021913
44	0xbd7146d4	-0.058905438
45	0x3f4b0156	0.79298913
46	0x3e22e141	0.1590624
47	0xbea25ee6	-0.31713027
48	0x3e42aeda	0.19012013
49	0xbdb3a951	-0.08772529
50	0x3e432099	0.19055404
51	0xbdaabd0e	-0.083368406
52	0x3edeb9c8	0.43501115
53	0xbcab2142	-0.020889882
54	0xbe77228b	-0.24134271
55	0xbe668b65	-0.22514112
56	0xbeb319bf	-0.3498058
57	0xbd132cc6	-0.03593137
58	0xbd813a48	-0.063099444
59	0x3d9d2ffc	0.07675168
60	0x3e0e1cb4	0.13878137
61	0x3e8644b2	0.26224285
62	0xbe2a7161	-0.16644813
63	0xbddbcca1	-0.10732389
64	0x3e31c09f	0.17358635
65	0xbd75aeb1	-0.05998105
66	0xbeaba1de	-0.33521932
67	0xbdd5bec6	-0.10436778
68	0x3e172672	0.1476076
69	0xbe580a67	-0.21097718
70	0xbe5ea85d	-0.21743913
71	0xbc8da7d7	-0.017291946
72	0xbe2a84f3	-0.16652279
73	0x3bd22489	0.0064130467
74	0x3d2edc62	0.042690642
75	0xbda477cf	-0.08030664
76	0xbe91668e	-0.28398556
77	0x3c829b1e	0.015943106
78	0x3e03c584	0.12868315
79	0x3bcf2d8c	0.0063225683
80	0x3d53e8de	0.05173575
81	0x3e08c5c1	0.13356687
82	0x3df77099	0.12082023
83	0x3dd17e41	0.10229159
84	0x3e9f114d	0.31067887
85	0x3e2b5c2a	0.16734377
86	0xbd992026	-0.07476835
87	0xbdaa0b78	-0.08302969
88	0xbe3e76c2	-0.1859999
89	0xbe8d53e6	-0.27603072
90	0xbd2d6384	-0.042331234
91	0xbe0a3558	-0.13496912
92	0xbd97d036	-0.0741276
93	0x3d3f5be6	0.0467185
94	0xbef179bf	-0.47163197
95	0x3df086a7	0.11744433
96	0xbecf04a6	-0.40433234
97	0xbe7b92f8	-0.24567783
98	0xbdcbd595	-0.09952847
99	0xbe4e1432	-0.20124891
100	0x3e77720b	0.24164598
101	0x3dbbfddc	0.09179279
102	0xbbeef863	-0.0072927936
103	0x3d8e5584	0.069499046
104	0x3daef0cb	0.08542021
105	0x3e4c4b86	0.19950685
106	0xbd9f6c4c	-0.07784328
107	0x3e6dcdb4	0.23223001
108	0xbe9c0fd9	-0.3048084
109	0x3e99f756	0.30071515
110	0xbdd53c3e	-0.10411881
111	0xbd9e8377	-0.07739919
112	0x3d33c3a5	0.043887753
113	0x3cc931bb	0.024559846
114	0xbcd041f7	-0.02542208
115	0xbe77916b	-0.24176566
116	0xbea52e20	-0.32261753
117	0xbe597362	-0.21235421
118	0xbd5734d7	-0.052540626
119	0x3dc584f3	0.09644499
120	0xbd4384bd	-0.04773401
121	0x3da936af	0.08262383
122	0xbebd87bf	-0.3701763
123	0xbd6aba2b	-0.05730645
124	0xbe84eeac	-0.25963342
125	0xbe64fbfc	-0.2236175
126	0xbc7e21f1	-0.015511022
127	0xbd05033d	-0.03247379
128	0x3e3a7549	0.18208803
129	0xbdd62e88	-0.10458094
130	0x3f2e6fe3	0.68139476
131	0x3e832f04	0.25621808
132	0xbe29c8d8	-0.16580522
133	0x3e9afc53	0.30270633
134	0x3e699c01	0.22813417
135	0x3de2c410	0.11072552
136	0x3e5c6e45	0.2152644
137	0x3e8220fc	0.2541579
138	0x3ef0b18d	0.4701046
139	0x3e1ce942	0.15323356
140	0x3f13cc96	0.5773405
141	0x3c36d69e	0.011159567
142	0x3e7fddfa	0.24987021
143	0x3ec7e20f	0.39039657
144	0xbe74e478	-0.23915279
145	0xbd9ff299	-0.07809944
146	0x3d3acffd	0.04560851
147	0xbe07d813	-0.1326602
148	0x3d9c1c23	0.07622554
149	0x3ca8cf43	0.020606643
150	0xbe85203f	-0.26001164
151	0xbc11debf	-0.008903204
152	0x3e3952d1	0.18097998
153	0xbc1bf3d2	-0.0095185805
154	0xbe62e3cf	-0.22157215
155	0xbd496409	-0.049167667
156	0xbe80f4d4	-0.2518679
157	0x3e611085	0.21978958
158	0xbd864b08	-0.0655728
159	0x3d92f748	0.071760714
160	0xbd54b881	-0.05193377
161	0xbdb36a8b	-0.08760556
162	0xbe8ead1b	-0.27866444
163	0xbc146689	-0.009057649
164	0xbd260867	-0.040535357
165	0x3df76dba	0.120814756
166	0x3dca163c	0.09867522
167	0xbddcbad2	-0.10777821
168	0xbebdcc91	-0.37070134
169	0xbe90623b	-0.28199944
170	0x3e3cdea9	0.18444313
171	0x3e13c800	0.14431763
172	0xbea440bf	-0.32080647
173	0xbe075a76	-0.13218102
174	0xbd17de64	-0.037077323
175	0xbdab2e7f	-0.08358478
176	0xbdad57b0	-0.08463991
177	0xbe157f11	-0.14599253
178	0x3d894e39	0.06704373
179	0xbe7f1e6c	-0.24913949
180	0x3e4805f5	0.19533522
181	0xbe4b8871	-0.19876267
182	0x3da54016	0.08068864
183	0x3e3d9151	0.18512465
184	0xbf048238	-0.517612
185	0xbdec1ff4	-0.11529532
186	0x3de12f23	0.10995319
187	0x3e84a20b	0.2590488
188	0xbec02750	-0.37529993
189	0x3ea6bdaa	0.32566577
190	0xbe0f6380	-0.140028
191	0xbd0b567f	-0.034018036
192	0x3d9ac7a2	0.07557608
193	0x3e7eb211	0.24872614
194	0xbe2c4dd4	-0.16826564
195	0x3e9c81d4	0.305678
196	0x3e32fccd	0.17479248
197	0x3beaa437	0.007160689
198	0x3e2a0ae9	0.16605724
199	0xbdb5bacf	-0.088735215
200	0x3b597df4	0.0033186646
201	0x3d1e87d2	0.038703747
202	0xbdcb5340	-0.09927988
203	0xbe045499	-0.12922896
204	0xbc2247b8	-0.009904794
205	0x3ddbcdb2	0.10732593
206	0xbd46556b	-0.048421305
207	0x3e0e0d18	0.13872182
208	0xbe86e8ec	-0.2634958
209	0x3da1c0d9	0.07898111
210	0x3c6c081d	0.014406231
211	0x3e2d6fdc	0.16937202
212	0xbd9cf107	-0.0766316
213	0x3dc89ee1	0.09795929
214	0x3db829bf	0.089923374
215	0x3d773eb6	0.06036254
216	0x3bbc85e7	0.005753267
217	0x3d64ee97	0.0558916
218	0xbe02a1c7	-0.12757026
219	0xbd107530	-0.03526801
220	0xbeab3486	-0.3343851
221	0xbdfeff14	-0.12450996
222	0x3e785900	0.24252701
223	0x3d40f1a6	0.047105454
224	0x3dd0555c	0.10172531
225	0xbdd7786d	-0.10521016
226	0x3ec5a3a4	0.3860141
227	0xbdd27f2a	-0.10278161
228	0xbc128b87	-0.008944399
229	0xbe8b0f75	-0.2716023
230	0xbe01bc81	-0.12669565
231	0xbdfdd305	-0.123937644
232	0x3d75c1b2	0.059999175
233	0xbe02f89c	-0.1279015
234	0x3e0d48e1	0.13797332
235	0xbc87ae56	-0.016562622
236	0x3e823821	0.25433448
237	0x3e015879	0.12631406
238	0xbb98ee5e	-0.0046670875
239	0xbd92d820	-0.07170129
240	0x3e9336c4	0.2875272
241	0x3e0ccec5	0.13750751
242	0xbdc16ed6	-0.094449684
243	0xbd3bbaa4	-0.04583229
244	0x3e4eaaf7	0.20182405
245	0x3b0850c2	0.0020800089
246	0xbd3d77cd	-0.04625683
247	0xbe6416c5	-0.22274311
248	0xbda1aba3	-0.07894065
249	0x3dfde45d	0.123970725
250	0x3d64a0da	0.055817463
251	0x3bbce625	0.00576474
252	0x3ddcaaee	0.1077479
253	0xbe8ba24e	-0.27272266
254	0x3b685317	0.0035449916
255	0xbb888ea2	-0.004167394

fc0.bias f4 [128]
0	0xbdae0543	-0.08497097
1	0x3d804001	0.06262208
2	0xbe2f0b6c	-0.17094201
3	0x3da463b5	0.0802683
4	0xbf030a22	-0.51187336
5	0xbecdb6dd	-0.40178576
6	0xbdd2027d	-0.10254381
7	0x3d8bc9dd	0.06825612
8	0x3d496df6	0.049177133
9	0x3c8e4d3d	0.017370814
10	0xbc5e0d06	-0.01355291
11	0xbecfd21a	-0.40589982
12	0xbead082c	-0.33795297
13	0xbe7ebd33	-0.24876861
14	0x3d77981f	0.06044781
15	0xbe2725bb	-0.16322987
16	0xbe19d76c	-0.15023583
17	0xbda9d799	-0.08293075
18	0xbe15a7bf	-0.14614771
19	0xbcfdddb6	-0.03098951
20	0xbcd3b3e1	-0.025842609
21	0x3c17dcda	0.009268964
22	0xbd1f66d6	-0.03891643
23	0x3de22589	0.110423155
24	0xbc251301	-0.010075332
25	0xbd71d1e3	-0.059038054
26	0xbe22052c	-0.15822285
27	0xbe9a1b1a	-0.30098802
28	0x3d3c99e0	0.046045184
29	0x3d6b95d4	0.057515934
30	0xbe64e7f0	-0.22354102
31	0xbd2ea4ed	-0.042637754
32	0xbd3ec8f8	-0.046578377
33	0xbd40693d	-0.046975363
34	0xbe734f50	-0.23760724
35	0xbda9d9e9	-0.08293516
36	0xbe2e6b89	-0.17033209
37	0x3d3daf5e	0.04630982
38	0xbdfac66b	-0.122448765
39	0xbe320e74	-0.17388326
40	0xbe43bd12	-0.19115093
41	0x3d97aaea	0.07405646
42	0xbeac87b4	-0.33697283
43	0xbe812e87	-0.2523081
44	0x3cbc0cbc	0.022955291
45	0xbd57e480	-0.05270815
46	0xbdda0147	-0.10644775
47	0xbc89c685	-0.016818294
48	0xbc83a60d	-0.01607039
49	0xbe1ac4da	-0.15114155
50	0xbd0b6705	-0.034033794
51	0x3d58431b	0.05279837
52	0xbde364e5	-0.111032285
53	0xbdd1b225	-0.102390565
54	0xbd88cb9f	-0.06679463
55	0xbd4f3ced	-0.050595213
56	0x3cf7768a	0.030207891
57	0x3e151d40	0.14561939
58	0xbed9f33e	-0.42568392
59	0xbca14582	-0.019686464
60	0xbf1778f6	-0.59168947
61	0xbd283f28	-0.041075855
62	0xbca4c8ff	-0.020115374
63	0xbc63ff00	-0.013915777
64	0x3c282fc6	0.010265296
65	0x3c92b05f	0.017906366
66	0xbf08b730	-0.5340452
67	0x3b86a053	0.0041084676
68	0xbc8b509d	-0.017006213
69	0x3d69327d	0.056932915
70	0xbe3b2c10	-0.18278527
71	0xbdadc95e	-0.08485673
72	0xbd00b2d4	-0.031420544
73	0x3d8c865a	0.06861563
74	0xbcbb8cec	-0.022894345
75	0xbd9d68b9	-0.0768599
76	0xbca99ec1	-0.020705583
77	0x3d8d7396	0.06906812
78	0xbf0fe37b	-0.5620648
79	0xbcc48a66	-0.023991775
80	0xbe0123e8	-0.12611353
81	0x3cdd3770	0.027003974
82	0x3d05d4d3	0.032673668
83	0x3cef571c	0.029216342
84	0xb8d6e749	-0.000102473954
85	0xbe306e76	-0.17229638
86	0xbd954d42	-0.072901264
87	0x3e63d2f4	0.22248441
88	0x3d7242f6	0.05914589
89	0xbc076287	-0.008263237
90	0x3d070c49	0.0329707
91	0x3e0ea309	0.1392938
92	0xbd25649d	-0.040379155
93	0xbe3f55e7	-0.18685113
94	0xbc9bef8e	-0.019035127
95	0xbd38f3cb	-0.045154374
96	0xbeb1956b	-0.3468431
97	0xbc95858c	-0.018252157
98	0xbdabca05	-0.083881415
99	0xbc07f6b2	-0.008298563
100	0x3d900a41	0.07033206
101	0xbcdf36b1	-0.027247759
102	0xbd5b8450	-0.05359298
103	0x3ccc3c93	0.024931228
104	0x3c28cb07	0.010302312
105	0xbce6f329	-0.02819212
106	0xb9ef2104	-0.0004561023
107	0xbeeb7c04	-0.45993054
108	0x3cd24c7f	0.025671242
109	0xbe612be7	-0.21989404
110	0xbc74ad45	-0.014933889
111	0x3d05738d	0.0325809
112	0xbeb9ffef	-0.36328074
113	0xbd9e2726	-0.07722311
114	0xbe851601	-0.2599335
115	0xbdd6caf9	-0.10487933
116	0x3de26d51	0.11056007
117	0xbd864987	-0.06556993
118	0x3d40fad2	0.0471142
119	0x3bf9e521	0.0076261912
120	0xbe91531f	-0.2838373
121	0x3c908d9a	0.017645646
122	0x3d9bd9bc	0.07609889
123	0xbd54d83e	-0.051964037
124	0xbdd2c7b8	-0.102919996
125	0xbc97679a	-0.018482018
126	0xbef44a76	-0.4771306
127	0x3c15c4fb	0.009141202

fc1.weight f4 [16, 128]
0	0xbe870730	-0.2637267
1	0xbd2b8aff	-0.041880604
2	0x3d75022a	0.059816517
3	0x3e2e2213	0.17005186
4	0xbe022977	-0.1271113
5	0xbe8d6b0b	-0.2762073
6	0x3c2dab09	0.01059986
7	0x3c6322e1	0.013863296
8	0xbe7b0604	-0.24514014
9	0x3edd1e64	0.4318725
10	0x3bbbe6b8	0.005734291
11	0xbd9fbfb7	-0.078002386
12	0x3cb09c85	0.02155901
13	0x3df11f27	0.1177352
14	0x3daf5043	0.085602306
15	0xbd4e63b2	-0.050388046
16	0xbeb88af2	-0.36043507
17	0xbcbd29e1	-0.023091258
18	0x3d09ccff	0.033642765
19	0xbe2ee2d4	-0.17078716
20	0xbe3e2bc0	-0.18571377
21	0x3cec2859	0.028827833
22	0x3e043013	0.12908964
23	0x3b71c730	0.0036892407
24	0xbc9b224d	-0.018937254
25	0x3e1e76bd	0.15474983
26	0x3d19600c	0.037445113
27	0xbe65de80	-0.22448158
28	0x3efb9fb0	0.4914527
29	0xbdf90053	-0.12158265
30	0xbe132b48	-0.14371979
31	0x3e28e159	0.16492213
32	0xbe5e7f0a	-0.21728149
33	0x3e3fc1f5	0.18726332
34	0xbd79ba2a	-0.060968556
35	0x3de4c409	0.11170203
36	0x3d68d271	0.056841318
37	0x3e09bf11	0.13451792
38	0xbd64a18f	-0.055818137
39	0xbe6c2c55	-0.23063786
40	0xbe49c2b7	-0.19703184
41	0x3d839128	0.06424171
42	0x3e23b38f	0.15986465
43	0xbe350961	-0.17679359
44	0x3e2e8ebc	0.17046636
45	0x3aa4e80d	0.0012581364
46	0x3d68a20a	0.056795157
47	0x3dc6da6d	0.0970963
48	0x3e55a56d	0.20863886
49	0x3bc4b7ef	0.006003372
50	0xbd5e757d	-0.054311264
51	0x3d9b1f66	0.07574348
52	0xbdc149f2	-0.09437932
53	0x3d785058	0.060623497
54	0x3da00938	0.07814258
55	0x3cbe4827	0.023227764
56	0xbdcfab4c	-0.10140094
57	0xbe8d8f8a	-0.27648574
58	0x3e23641a	0.15956154
59	0x3e76dd5b	0.24107878
60	0xbdb4b18e	-0.08822928
61	0x3d6657cf	0.056236085
62	0x3e29ee18	0.16594732
63	0xbe0eaf32	-0.13934019
64	0x3e005d95	0.12535699
65	0xbc067a81	-0.008207918
66	0xbcb881a7	-0.02252276
67	0x3edbbe23	0.429185
68	0x3d386ef5	0.045027692
69	0x3e1c9c5d	0.15294023
70	0x3e082633	0.13295822
71	0xbe4e857f	-0.20168112
72	0x3da0958d	0.078410245
73	0x3e495125	0.1965986
74	0xbd7aa755	-0.061194737
75	0x3c26279d	0.0101412805
76	0x3e3ba562	0.18324807
77	0x3e297329	0.16547836
78	0xbe7b8e47	-0.24565993
79	0x3e4798ed	0.1949193
80	0xbe1b6d0b	-0.15178315
81	0x3c304269	0.010758021
82	0x3e22c8aa	0.1589686
83	0xbe292b36	-0.1652039
84	0x3d1f3c50	0.038875878
85	0x3e41879a	0.18899384
86	0xbd4db5cb	-0.0502222
87	0xbe86992f	-0.26288745
88	0xbd73333e	-0.05937504
89	0x3d79db63	0.06100024
90	0x3da4916e	0.08035551
91	0x3d842477	0.064522676
92	0x3d8f86dc	0.07008144
93	0x3ed382dd	0.41310778
94	0x3d5d1d0e	0.053982787
95	0xbd857a76	-0.06517498
96	0x3e072c31	0.13200451
97	0xbd840e7c	-0.06448075
98	0x3ebb0a27	0.36531183
99	0xbd872645	-0.06599096
100	0xbdcdabe5	-0.10042552
101	0x3d85af45	0.06527571
102	0x3e3676ce	0.17818758
103	0x3e346643	0.17617135
104	0x3e4a176c	0.19735497
105	0x3e4247e5	0.18972738
106	0xbef1226f	-0.47096583
107	0x3ea19ac4	0.3156339
108	0xbc241ccf	-0.010016634
109	0x3d2be2d8	0.041964382
110	0xbdbb32ac	-0.09140524
111	0xbd824674	-0.06361094
112	0xbec224eb	-0.3791879
113	0xbdeae462	-0.11469342
114	0xbdb0b675	-0.08628551
115	0xbebbf6e7	-0.3671181
116	0xbc2a4836	-0.010393193
117	0xbcee81a3	-0.02911455
118	0x3e4f63f7	0.20252977
119	0x3d154192	0.036439486
120	0xbe38e34f	-0.18055461
121	0xbd65fb92	-0.05614812
122	0xbd0426d0	-0.032263577
123	0x3e94efd8	0.29089236
124	0x3df4c49c	0.11951563
125	0x3c540a06	0.012941843
126	0xbe46bb0c	-0.1940729
127	0x3cb0973c	0.02155649
128	0xbeacba55	-0.3373591
129	0xbd1f5b29	-0.038905296
130	0x3cecbe02	0.028899197
131	0x3e0cbbb0	0.13743472
132	0xbdef4434	-0.116829306
133	0xbe1baf36	-0.15203556
134	0x3de01296	0.10941045
135	0xbda18fe2	-0.078887716
136	0xbe69012e	-0.22754356
137	0x3eaa8d31	0.33310845
138	0x3e40ed10	0.18840432
139	0xbddc806e	-0.107666835
140	0x3da8edeb	0.08248504
141	0xbd631935	-0.05544396
142	0x3db2acdf	0.08724379
143	0xbe4aa4d3	-0.19789438
144	0xbe1f817d	-0.1557674
145	0xbe1ed6c7	-0.15511619
146	0xbe9311bc	-0.28724468
147	0x3d1a228b	0.0376306
148	0xbe571936	-0.21005711
149	0x3db6e91e	0.08931182
150	0x3e5ea069	0.21740879
151	0x3d7ce2e8	0.061739832
152	0x3dee87fb	0.1164703
153	0xbe5b2fd0	-0.21404958
154	0xbe2602cb	-0.16212003
155	0xbd4fb10f	-0.050705966
156	0x3e8114f7	0.25211307
157	0xbe4e5f0c	-0.20153445
158	0xbd99dc36	-0.07512705
159	0x3e3e54f4	0.18587095
160	0xbc2431c1	-0.010021628
161	0xbba3e7a9	-0.0050019813
162	0xbd9bb3b7	-0.07602637
163	0xbcc60bbc	-0.024175517
164	0x3e17f7ff	0.14840697
165	0x3e8a5122	0.27015024
166	0xbc2e1bd2	-0.01062675
167	0xbd96cad2	-0.07362904
168	0xbe7c326c	-0.2462861
169	0x3c2d9331	0.010594175
170	0x3d942e01	0.07235337
171	0xbe4f7a69	-0.2026154
172	0x3df7026c	0.12061009
173	0x3dfaffef	0.12255847
174	0xbde6f49b	-0.112771235
175	0x3d767262	0.060167678
176	0x3e45d85d	0.19320817
177	0xbe0bf51e	-0.13667724
178	0xbc9d558e	-0.019205835
179	0x3d49578e	0.049155764
180	0xbcfca99f	-0.0308426
181	0xbe82dd85	-0.2555963
182	0x3d38d267	0.04512253
183	0xbde54f0b	-0.11196717
184	0x3d1c3ec8	0.03814581
185	0xbe8d6ef9	-0.27623728
186	0x3e4d4af6	0.20048127
187	0x3e52890b	0.2056009
188	0xbd13ed73	-0.03611512
189	0xbe5e0864	-0.21682888
190	0xbdc50504	-0.09620097
191	0xbde6be47	-0.11266761
192	0x3dffee2d	0.124966
193	0x3d68a5e4	0.05679883
194	0xbd9b68f7	-0.0758838
195	0x3ea75920	0.32685184
196	0x3e5afec1	0.21386243
197	0x3e5d3230	0.21601176
198	0x3e266f7c	0.16253465
199	0x3d76b361	0.060229663
200	0x3d60d9c4	0.054895177
201	0x3d013e0a	0.031553306
202	0xbeed5178	-0.46351218
203	0x3d3c2d25	0.04594149
204	0x3dbac24f	0.09119093
205	0x3c3b199a	0.011419678
206	0xbe5f9d93	-0.21837454
207	0x3d8f0f11	0.069852956
208	0xbc182edf	-0.009288519
209	0x3e033921	0.12814762
210	0xbe5841bc	-0.21118826
211	0xbdc6f464	-0.097145826
212	0xbd91a38e	-0.07111274
213	0x3d7c2422	0.061557896
214	0x3d2262c3	0.039644968
215	0xbe120da7	-0.1426302
216	0x3c5afa90	0.013365403
217	0x3ddd82e2	0.108159795
218	0x3d998d7c	0.07497689
219	0x3d8dfd69	0.069331
220	0xbca8b282	-0.020592932
221	0xbe0e52b2	-0.13898733
222	0x3c1e6a7c	0.009668943
223	0xbde2f042	-0.11080982
224	0x3eb6e96b	0.3572496
225	0xbdb61e16	-0.08892457
226	0x3e7450ef	0.23858999
227	0x3d7e640a	0.062107123
228	0x3c9dcff6	0.019264203
229	0xbc1d7856	-0.00961121
230	0x3db9f3b2	0.09079684
231	0x3e632698	0.22182691
232	0x3e61692e	0.22012779
233	0x3e6193c8	0.2202903
234	0x3eb72e87	0.35777685
235	0x3e18f486	0.14937028
236	0xbdfa0f2b	-0.12209924
237	0xbda6421e	-0.081180796
238	0x3d95e19f	0.073184244
239	0xbe541904	-0.20712668
240	0xbdff31c1	-0.12460662
241	0xbe6f33c0	-0.23359585
242	0xbd1e3eea	-0.03863422
243	0xbe0bad3d	-0.13640304
244	0x3ddef21d	0.10886023
245	0xbe0e122e	-0.13874123
246	0x3d4695b1	0.0484826
247	0xbc5100c6	-0.012756532
248	0x3df82fb3	0.12118473
249	0x3e109254	0.1411832
250	0xbe042e86	-0.12908372
251	0x3ec92f94	0.39294112
252	0x3df217de	0.118209586
253	0x3e5faff2	0.21844462
254	0xbe8be848	-0.27325654
255	0x3d82efb7	0.06393378
