models/remaster_1.pth (torch, 34765 bytes, 3 tensors)

fc0.weight f4 [128, 48]
000000 c1 5d f9 bd 42 b7 b3 3d 9c 56 63 3e d0 cc fe 3d
       -0.12176085 0.08775188 0.22201008 0.12441409
000010 a8 54 b2 3c 91 4b 49 3e 57 ae bf bd 19 3b c1 3d
       0.021768883 0.19657733 -0.093594246 0.094351
000020 b3 dc ca 3d f8 d3 fd 3c 7b 8e 86 be 99 a6 47 bd
       0.09905376 0.030984864 -0.2628058 -0.048742864
000030 55 39 07 bd 90 fc d3 3d fb 93 70 bd f4 2a 8d bd
       -0.03301366 0.10350907 -0.058734875 -0.06892958
000040 79 f0 8a 3c 98 4e d6 3c 8a e8 ca be 28 59 b7 3d
       0.01696037 0.026160523 -0.39630538 0.08952552
000050 ff f3 23 3e d5 a5 20 bc 3b a9 a3 3d 0d f2 ee 3c
       0.16011046 -0.009805162 0.079912625 0.029168153
000060 6a 25 09 3e 8e 7c c5 3d 9f ad fb bd f4 8f 45 be
       0.13393179 0.096428975 -0.12288975 -0.19293195
000070 94 48 89 be 84 00 80 3e 4c c8 1a bd 57 09 63 3e
       -0.26813185 0.25000393 -0.037788674 0.22171532
000080 5a 2d e2 3c 52 a6 56 3d 66 04 91 3d 2c 4c c7 3c
       0.027609516 0.05240471 0.07080917 0.024328314
000090 78 49 05 3e b4 0c d6 3d e3 56 ee bc 58 ea 9b be
       0.13016307 0.10451642 -0.029094165 -0.30452228
0000a0 a6 bf 26 bd 28 c1 73 bd 96 e7 ac 3d b2 1a 51 3d
       -0.040710114 -0.05951038 0.08442609 0.05105085
0000b0 d9 cc 48 be aa 30 a5 3e 4d dc 25 be c3 f0 69 be
       -0.19609393 0.3226369 -0.1619732 -0.2284575
0000c0 92 30 00 3e 2d b9 f5 bd b4 92 20 3e 26 2c 82 bd
       0.12518528 -0.1199821 0.15680963 -0.06356077
0000d0 8f f4 4c 3e 20 d0 f2 bd 86 9c 00 be 5f 62 24 be
       0.20015167 -0.11856103 -0.12559709 -0.1605315
0000e0 97 37 24 be 98 61 c8 bd eb 35 eb bd d5 dc 4a 3d
       -0.16036831 -0.097842395 -0.114848934 0.049527008
0000f0 36 4a 1e 3e d5 69 27 3e c4 02 3e be 71 cb 43 be
       0.15457997 0.16348965 -0.18555743 -0.19120575
000100 a6 78 04 3e e8 27 79 bc 18 12 cb bd 87 3b 59 bd
       0.12936649 -0.015207268 -0.099155605 -0.053035285
000110 5f 2d 12 3e 06 4f bf bd 67 27 04 be 3b 44 e4 3c
       0.1427512 -0.093412444 -0.12905656 0.027864566
000120 a8 da 56 bd 9b 1e 5e bd f8 24 af bd 78 5f 50 3c
       -0.05245462 -0.054228406 -0.08551973 0.012718074
000130 a2 6c 12 be f6 9d 5b bd dc fc ba bc dc 18 fc bb
       -0.14299253 -0.05361744 -0.02282565 -0.007693393
000140 06 3c 20 bc d3 53 00 3d ad 32 d4 bd ce f5 73 bc
       -0.009779936 0.03132994 -0.10361228 -0.014890147
000150 c6 fb 36 3e 8a 56 77 3e 40 35 e9 bc d1 26 27 be
       0.17869481 0.24154106 -0.028467774 -0.16323401
000160 2b 72 1d be cd e7 77 be 6f b6 b3 bd 7f ab f9 bd
       -0.15375583 -0.24209519 -0.08775031 -0.121909134
000170 06 8e 4f be 1c a6 8e 3d d9 24 02 bf 1e aa 8c 3d
       -0.20269021 0.069652766 -0.50837475 0.06868385
000180 b2 d5 65 be ea 87 7d be ca ae 04 3d 2b bc 23 be
       -0.224448 -0.24758878 0.032393254 -0.15989749
000190 1d 56 1d 3e 7b 93 2f 3e de ff af 3c 82 48 a9 bc
       0.15364881 0.17146103 0.021484312 -0.020664457
0001a0 c6 84 1b 3d 74 03 6f 3e e9 e2 44 3c 67 cd 12 3e
       0.03796842 0.23341161 0.01201699 0.14336167
0001b0 9c 01 51 be 83 11 4d 3e c4 3e 98 bd 97 52 27 bd
       -0.2041077 0.20026211 -0.074338466 -0.04085025
0001c0 13 6e 1a 3c e8 1d c9 bd 34 42 75 3e 08 5c 16 be
       0.009425658 -0.09820157 0.23951036 -0.14683545
0001d0 2b c1 cd be d9 79 3f be 9e 7c de bd 45 f9 0e 3e
       -0.40186438 -0.18698825 -0.108636126 0.13962276
0001e0 99 15 8f 3c 5b 4f bb bd f4 de 82 be 32 a0 2d be
       0.017466353 -0.09145995 -0.25560725 -0.16955641
0001f0 20 9c 0d be 28 c8 1f be 33 7d 05 bd d2 be 0b 3c
       -0.13829088 -0.15603697 -0.032590102 0.008529382
000200 dc 30 c8 3d 7d bc c4 bd 36 d0 e1 3e 51 40 05 3e
       0.09774944 -0.09606264 0.44104165 0.13012816
000210 38 ca cc 3c 29 0b 9c 3e a0 c0 62 3e 09 dd 11 3e
       0.02499877 0.30477265 0.22143793 0.14244474
000220 11 3e 53 3e d3 8d d6 3d 3b 75 bf 3e 5f e0 4a 3e
       0.20629145 0.104762696 0.37394127 0.19812153
000230 10 8e d6 3e f8 ee 4a 3d d4 b9 36 3e 12 98 9c 3e
       0.4190526 0.049544305 0.17844325 0.3058477
000240 35 4f 1d be 86 91 9c bd c2 3d cb bc eb 98 2e be
       -0.15362246 -0.07644944 -0.024809722 -0.17050521
000250 48 27 4e 3d 3a 13 e9 bd 92 ef 6c be ef 8b 04 bb
       0.05033043 -0.1138062 -0.23138264 -0.0020225008
000260 05 35 0c 3e 5d 74 0e 3c 50 7a 27 be f2 85 20 bd
       0.136921 0.008694735 -0.16355252 -0.03919024
000270 ae 66 38 be af a2 ea 3d e3 10 6b bc 33 8e 39 bd
       -0.18007919 0.11456811 -0.014347288 -0.045301627
000280 22 f0 13 be 6a a1 4d bd fb ad 18 be 16 7e 4f bd
       -0.14447072 -0.050202765 -0.14910118 -0.050657354
000290 7c 84 aa bd cc b6 3b 3e 03 31 65 3d 1e 3f 19 be
       -0.08326051 0.1833145 0.055954944 -0.14965484
0002a0 0e 95 79 be 2f a1 6b be 3a 52 cc bc e0 0f 0d 3e
       -0.24373266 -0.23010705 -0.024941552 0.13775587
0002b0 8d 1b 70 be 8e 35 2a be 16 33 4b be f9 dc 6b 3d
       -0.2344801 -0.16621992 -0.19843706 0.057583783
0002c0 7f 2d 82 bd c8 25 e8 bd 72 96 af 3c 9a f4 7e be
       -0.06356334 -0.11335331 0.021434043 -0.24897996
0002d0 a3 29 eb 3e 00 00 3c be 46 82 aa 3d 18 ea 23 3e
       0.45930204 -0.18359375 0.08325629 0.16007268
0002e0 75 69 a8 be d8 a8 4c bd c0 5d 1f 3e 90 6e 0a 3e
       -0.32892957 -0.04996571 0.15563107 0.13518739
0002f0 14 c6 48 be e3 ba 75 3e 9b 9f 31 be 03 dd e2 bd
       -0.19606811 0.23997073 -0.17346041 -0.11077311
000300 83 5d 74 3d 48 f2 33 3e 5a 42 e7 bd 66 ec 6c 3e
       0.059659492 0.17572892 -0.112919524 0.23137054
000310 8e d4 14 3e a1 6d c5 bc 85 57 ad 3d af 27 af bd
       0.14534208 -0.024100127 0.08463959 -0.08552491
000320 2c f0 a6 39 17 b1 4f 3d 94 4f bd bd da b1 a9 bd
       0.0003184093 0.050705995 -0.09243694 -0.082858756
000330 9a bd 0b 3c d9 53 85 3d 00 25 76 bd da c5 05 3e
       0.008529091 0.06510133 -0.06009388 0.13063756
000340 14 8f 12 be 77 1e ac 3d 63 13 df bb fe 7f cf bc
       -0.14312392 0.08404248 -0.006807731 -0.025329586
000350 45 d9 2e bd 43 8f 7f 3d ce 69 38 bc 0e fd 4e 3c
       -0.042687673 0.062392484 -0.011255695 0.012633575
000360 ac c6 1f bd b2 e6 7f 3d a2 60 02 be d4 20 eb bd
       -0.039007828 0.062475868 -0.12732175 -0.11480871
000370 e2 af a0 be 0a cc d9 bd d8 03 3d 3e ab fd 8a 3d
       -0.31384188 -0.106346205 0.18458498 0.067866646
000380 fc 0e 54 bc c5 31 f2 bd 2d fc 47 3e ff d7 cd bd
       -0.012943026 -0.11825899 0.19529791 -0.100509636
000390 08 3e 4f bb b7 3d 98 be 92 7f 8f be 6e b3 a8 bd
       -0.0031622667 -0.29734585 -0.28027016 -0.082373485
0003a0 9c 55 d6 bd 25 8e 03 be 08 91 33 3e e2 c6 2e 3c
       -0.104655474 -0.12847193 0.17535794 0.010667535
0003b0 5a a4 87 3e f8 93 a9 3d 56 4b 68 bc 96 b7 19 be
       0.26492578 0.08280176 -0.014178118 -0.15011439
0003c0 aa 02 74 3e f4 b3 1f 3e 69 1f ae bd a2 d8 46 3d
       0.23829141 0.1559599 -0.08502085 0.04854644
0003d0 da 68 15 3e 08 73 c0 3b a3 03 11 3d e1 76 12 be
       0.14590779 0.005873088 0.03540386 -0.14303161
0003e0 39 5e a6 bd 03 7b ef 3d 7c 08 6a 3c e0 93 46 38
       -0.0812344 0.116933845 0.014284249 4.7344598e-05
0003f0 6a 8a fa 3d 18 5d 83 be 5f 9f 8d 3c 1f 4f 44 3d
       0.12233432 -0.25656962 0.017287908 0.04792702

fc0.bias f4 [128]
000000 2f e6 62 bd 81 cd 29 3c cc 68 0f be ab ad b7 3c
       -0.0553953 0.010363937 -0.1400482 0.022421679
000010 48 7d bc be e8 b9 8e be da 0d 12 bd 6c 00 4f 3d
       -0.36814332 -0.2787621 -0.03565774 0.05053751
000020 dc 79 1a 3d f5 d6 24 3d a1 20 4e bc 82 07 ac be
       0.03771387 0.04024406 -0.0125810215 -0.33599478
000030 95 6d ac be c7 8a 45 be b8 4e b3 3b 5f 91 37 be
       -0.33677354 -0.1929122 0.0054720305 -0.17926548
000040 97 ee c1 bd 0e ac cb bd ad c3 9e bd e8 b7 8d bb
       -0.094693355 -0.09944926 -0.07752166 -0.004324902
000050 8b 56 1c bc 51 77 12 bb 56 00 87 bb c9 48 78 3d
       -0.009542118 -0.002234895 -0.004119913 0.06061629
000060 9f ba 07 bd eb 80 c0 bc 9c 1a a3 bd d0 f8 68 be
       -0.03313696 -0.023498973 -0.0796406 -0.22751164
000070 c3 f5 59 bd 6f 26 82 3d a5 df ab 3c 6c c5 02 3a
       -0.053212892 0.06354987 0.020980665 0.00049885246
000080 7f 57 2a bc c0 c4 74 bd 31 5c 31 be 72 32 21 3d
       -0.010396837 -0.059757948 -0.17320324 0.03935475
000090 b8 60 21 be f1 dd fe 3c 9a fd 82 bd dd 2a ef bd
       -0.15759552 0.03111169 -0.06396027 -0.116780974
0000a0 94 f8 e4 bd 9c c7 61 bd 27 71 c3 bd fb a5 67 be
       -0.11180225 -0.055122003 -0.095430665 -0.2262191
0000b0 2e 96 36 3d be 76 96 bd 9b a7 da bd 8d 34 57 bc
       0.044576816 -0.07346867 -0.106764995 -0.013135088
0000c0 09 6e 03 bc 9d 90 c1 bd bb f0 5a bd 10 ca 47 3d
       -0.00802184 -0.09451411 -0.053452235 0.048776686
0000d0 39 7d cb bd 51 2c 9c bd b1 1d 7a bc f6 20 66 bd
       -0.09935994 -0.0762564 -0.015265868 -0.056183778
0000e0 88 9e 2a 3d 11 49 d5 3d ed bc a2 be cb ae 06 3d
       0.041655093 0.10414327 -0.31784764 0.03288154
0000f0 16 2c b2 be ed 87 02 3d 61 57 98 bd 00 9b 86 bd
       -0.3479926 0.03186791 -0.07438541 -0.06572533
000100 ca af 64 bd 04 31 31 bd bc 48 bb be af 5d b5 3c
       -0.055831708 -0.043259636 -0.3657893 0.022139398
000110 55 6f a3 3a d4 05 94 bb a1 19 fa bc 94 39 69 bc
       0.0012469093 -0.0045172963 -0.030529799 -0.014234919
000120 6a 9f 81 bd df 0f 0c 3d 96 b8 f6 bb 1b 24 71 bd
       -0.06329234 0.034194823 -0.0075293286 -0.058872323
000130 0f dc 59 bd 0c 57 83 bb 10 07 cb be 42 bc 32 3c
       -0.05318838 -0.0040081795 -0.39653826 0.010909142
000140 36 19 43 bd b8 f4 49 3d e9 3c 3a 3d 96 97 5a 3d
       -0.047631465 0.049305648 0.045468245 0.05336722
000150 71 dd 1c 3d ad 2b 32 be 23 73 7f bd 85 e1 28 3e
       0.03829712 -0.17399473 -0.062365662 0.16492279
000160 7e 2f ef bb 49 d1 80 bc de 55 a0 3d 53 fd 08 3e
       -0.0072993627 -0.015724795 0.07828878 0.13377886
000170 29 9f 24 3c 0a 85 39 bd be dc c6 3c a8 33 ad bd
       0.010047712 -0.04529289 0.02427518 -0.08457118
000180 82 c2 79 be 14 b9 06 3b f7 35 17 bd bc 4e 9d bd
       -0.24390605 0.0020557093 -0.0369167 -0.07681033
000190 75 61 9c 3d a2 51 3b 3b e8 2c aa bb 60 57 de 3c
       0.07635776 0.0028582592 -0.0051933415 0.027141273
0001a0 4d 1c 9b bc 95 ce db 3b 19 3b 13 3d 61 43 61 be
       -0.018934393 0.006707976 0.03594503 -0.2199836
0001b0 47 8e b5 bc 54 40 15 bd 0e fa 00 bd 58 2c c7 3c
       -0.02216257 -0.0364383 -0.03148847 0.024313137
0001c0 03 5d 97 be cd b2 b2 bd b3 2c 81 be c5 28 5c bd
       -0.2956315 -0.0872551 -0.25229415 -0.05374982
0001d0 1e bb f6 3d da 4c 41 bd ce 9e 1a 3d 5b d4 38 bd
       0.120474085 -0.047192432 0.037749104 -0.045124393
0001e0 14 ea 43 be a8 49 f6 3c a5 e3 89 3c 93 a1 4a bd
       -0.19132262 0.030064419 0.016832182 -0.049470495
0001f0 d3 2f de bd 08 39 64 bd a7 a3 d5 be 6a 87 35 3d
       -0.108489655 -0.05571845 -0.4172642 0.044318594

fc1.weight f4 [16, 128]
000000 6f ac df bd c6 45 36 bd 16 0f d1 3c e1 5b 8b 3d
       -0.10921561 -0.044500135 0.025519889 0.06804634
000010 e3 8d 4d bc 06 16 17 be 9d 26 97 bd 65 8d 26 bd
       -0.012546035 -0.14754495 -0.07380412 -0.040662188
000020 22 f3 94 bc a5 5c ed 3d 8c 43 33 bd 57 38 52 3c
       -0.018182341 0.11589936 -0.04376559 0.012830815
000030 2a 5b e8 bc 87 b2 7d 3b 4f d8 97 3c 91 6d f3 bc
       -0.028363783 0.0038711147 0.018535761 -0.029715331
000040 05 db 03 be 72 ef 39 bd 3b 6b ba 3d 21 48 1a be
       -0.12876518 -0.04539437 0.09102484 -0.15066577
000050 d3 a6 87 bd 2c 1f 15 3c 56 54 23 bd 25 cb fa bc
       -0.06623616 0.00910167 -0.03987535 -0.030614445
000060 7c 92 e7 3c 72 7b ca bc 61 d7 0a bc 5c ef 30 be
       0.028268091 -0.024717066 -0.008474202 -0.17278808
000070 31 1c d4 3e a2 cc f8 bc 45 02 37 bd c1 15 c3 3d
       0.41427758 -0.030371014 -0.0446799 0.095256336
000080 0c a9 3c bd 14 65 29 3e d2 ef 02 3c 67 1c 0f 3d
       -0.046059653 0.16542464 0.007991748 0.034939196
000090 f3 35 f5 3c 12 4f 36 3d 14 1f 03 bd 9e cb 01 be
       0.029932952 0.044509 -0.03201206 -0.1267533
0000a0 80 84 63 bd e1 fc 04 3d c5 17 92 3d c0 f4 e8 bd
       -0.055546284 0.032467727 0.0713344 -0.11374807
0000b0 d7 16 2b 3d d0 3d f3 bc 59 6c 5c bd 0a c8 77 3d
       0.04176983 -0.02969256 -0.053814266 0.060493506
0000c0 a1 58 f2 3c 1b 90 fb 3c c2 ae cc bd f7 dc 28 bb
       0.029583277 0.030708363 -0.0999427 -0.002576647
0000d0 a3 68 8d bd 75 ae 20 3d 04 27 ac 3c 79 66 66 bd
       -0.069047235 0.039228875 0.021014698 -0.05625007
0000e0 8d 26 bc bd 2c c8 b2 bd b4 20 9b 3e dd c0 94 3e
       -0.091870405 -0.08729586 0.30298388 0.29053393
0000f0 b4 94 34 bd a2 89 77 3c 95 d2 1c 3e eb e4 09 bc
       -0.044087127 0.015108498 0.15314706 -0.008416395
000100 99 9c 4a 3d 9f e3 a1 3c ce f3 4e 3d 87 16 7f 3e
       0.04946575 0.019761859 0.05052548 0.24910937
000110 7f 22 56 3d ea 22 fb 3d 49 2f 21 bd be b2 b4 bd
       0.05227899 0.12262519 -0.039351735 -0.08823155
000120 36 6f fa 3b 64 01 55 3d b2 63 a2 bb d2 22 27 3c
       0.007642652 0.05200328 -0.0049557323 0.010201173
000130 6e 5e ca 3d 56 39 2c 3d 4e 78 9f ba 58 d6 fa 3a
       0.09881292 0.042046867 -0.0012166591 0.0019137366
000140 b2 9d d0 bb bb b7 aa 3c 16 39 fd 3d 4f 94 e8 bd
       -0.006366455 0.020839563 0.12364404 -0.113564126
000150 7d dd d7 3d 9a aa bd 3d 58 42 20 3c 8c 70 8d bd
       0.105402924 0.09261055 0.009781443 -0.06906232
000160 b8 52 58 3d 32 61 38 bd 85 58 f3 3c e4 9c 45 3d
       0.05281326 -0.045014568 0.029705295 0.048245326
000170 62 bd da 3b c5 47 3b be aa 7e b8 3d d7 5f d4 bc
       0.006675408 -0.18289097 0.09008534 -0.025924606
000180 e5 89 a3 3d 62 49 59 bd 21 71 23 3c fc 73 fa bc
       0.07985286 -0.0530485 0.0099757025 -0.030572884
000190 c0 15 52 bd 82 3d 82 3d 19 c7 a3 3d 29 67 48 3e
       -0.051290274 0.06359388 0.07996959 0.19570602
0001a0 0a da 3b 3e 1c dd f2 3b e9 9e 92 be b3 05 b7 3d
       0.18344894 0.007411612 -0.28636864 0.08936634
0001b0 dc be 3f 3d 63 9b bd 3c da d3 a5 bd 7d 82 42 bd
       0.046812877 0.023145383 -0.08097048 -0.047487725
0001c0 3c 6b 38 be 70 d6 22 bd 0a 97 eb bd 7f 19 40 be
       -0.18009657 -0.039755285 -0.11503418 -0.18759726
0001d0 91 78 4d 3c 09 00 85 bd 28 75 d9 3d a0 56 58 3d
       0.012540952 -0.06494147 0.10618049 0.052816987
0001e0 b0 ab dc bd 3d fe 97 3c f0 f6 2d bd ab 2b 13 3e
       -0.10774934 0.018553847 -0.042471826 0.14372127
0001f0 43 c4 54 3e e3 61 84 3d 26 8d ec bd bf 4a 7c 3d
       0.20777993 0.06463983 -0.115503594 0.06159472
000200 db eb 93 bd da 1d fd 3b c0 59 21 b8 47 59 a0 3d
       -0.0722272 0.007724506 -3.8468977e-05 0.07829528
000210 c6 ef 5f bd d2 d4 cb bd 8d 0f 53 3d 20 68 d3 bc
       -0.054672025 -0.09952702 0.051528502 -0.025806487
000220 ac 16 93 bb 46 03 27 3e b6 80 b4 3d c9 7d 49 bd
       -0.0044887867 0.16309842 0.08813612 -0.049192224
000230 ce c8 18 bd 98 29 e6 b9 9a 70 53 3c fc a0 38 bd
       -0.037300877 -0.00043900008 0.012905264 -0.0450754
000240 82 88 1f be e8 cd cb bd cd ca 5f be 2f 97 31 bd
       -0.15579417 -0.09951383 -0.21854706 -0.04335707
000250 2e 8e 14 3d 92 36 9f 3c 94 00 19 3e 1d 07 1f 3d
       0.036268406 0.0194352 0.14941627 0.038825143
000260 b7 a8 c7 3d 3e e1 8f bd f4 e6 2e 3d 99 5f 37 bd
       0.09748977 -0.070253834 0.042700723 -0.044768903
000270 99 e0 63 3d e0 7d f2 bd 76 5e 56 bd 33 41 aa 3d
       0.055634115 -0.11840415 -0.05233618 0.08313217
000280 50 7f 3e bd c7 ca 09 3e 20 25 02 3d 1c 9d 22 3d
       -0.046508133 0.1345626 0.031773686 0.039700612
000290 02 b5 d1 3c d1 7c 2f 3e f4 e8 e2 bc f2 68 17 bd
       0.025599007 0.17137457 -0.027698971 -0.036965318
0002a0 7d 58 cd bd 8b 93 99 3b 81 ac 57 3d cf e1 e7 bd
       -0.100266434 0.004686778 0.052654747 -0.113223664
0002b0 e6 19 e3 3d 5c 07 18 bd e3 e0 9c bd 39 7f 87 3d
       0.11088924 -0.037116393 -0.07660081 0.06616063
0002c0 35 e2 89 bd 49 66 b0 bd e3 dd db bd 1d 2a 37 3d
       -0.06732599 -0.08613259 -0.10735681 0.044717897
0002d0 c7 8a 43 3c 51 4f 54 be e7 ab 14 3d 42 15 ab bc
       0.011934943 -0.20733382 0.03629675 -0.02088416
0002e0 ef 7b e0 3c 3f 16 0b be 2e 86 bd 3d c0 a0 f1 3d
       0.027402846 -0.13582705 0.09254108 0.11798239
0002f0 b8 01 0b bc c8 da 30 be 0d e0 03 be a9 ee bf bd
       -0.0084842965 -0.17270958 -0.12878437 -0.09371693
000300 dc 8b f7 3c 37 27 fe 3c dd f5 05 be 63 6e 28 3e
       0.030218057 0.031024558 -0.1308207 0.16448359
000310 f5 65 e6 3d 59 c8 ad 3d 9c 61 bc 3a d9 b7 12 bd
       0.112499155 0.08485479 0.0014372352 -0.035819862
000320 f5 01 ee bc 52 d0 4d 3d fd ea e5 bd 78 28 7a 3d
       -0.029053668 0.050247498 -0.11226461 0.06107375
000330 21 79 84 3d a2 47 17 bc 24 1b 29 be ee 2e 8d 3d
       0.06468416 -0.009233387 -0.1651426 0.06893717
000340 a5 4e c4 bd 07 30 68 3d 6c 1b 40 be fa 59 e0 bd
       -0.09585313 0.056686427 -0.1876046 -0.10954662
000350 35 94 01 3d cf 66 14 3d 07 1d 94 bc 64 22 0e bd
       0.031635482 0.03623086 -0.018080248 -0.034700766
000360 db 11 7d 3d c9 e4 8b 3d 9c 11 79 3d 37 2b 9a 3d
       0.061784606 0.06830747 0.06080781 0.07527774
000370 5f 7a b7 3c 0a 3d 22 bd c7 96 76 3d a3 b1 13 be
       0.022397218 -0.039608993 0.060202386 -0.14423232
000380 3a e1 51 3d 4c 93 84 bd 60 8c 37 3e 4f 26 26 bc
       0.051240183 -0.06473407 0.17924643 -0.010140969
000390 fc e1 99 3d 8c 96 18 3c 16 ce 39 be bf cb 0a 3e
       0.07513806 0.009313237 -0.18145022 0.13554285
0003a0 ac 9c 20 3e b4 d2 32 3d f2 03 65 3e ad 8a d0 3d
       0.15684766 0.043657973 0.22364786 0.101827
0003b0 ea 32 f4 bd cd bd 59 bd 88 ed 50 bd f5 f2 2d bd
       -0.119237736 -0.053159524 -0.051007777 -0.04246803
0003c0 05 f2 a6 bd 52 f9 e1 bd 1e b7 b8 bc 46 90 96 bd
       -0.0815163 -0.11033882 -0.022548255 -0.07351737
0003d0 02 07 2b bc a2 62 06 be 60 1e 2c 3c 46 3f 46 3d
       -0.0104386825 -0.13123563 0.010505289 0.048400186
0003e0 3e e0 28 3e c2 cf 3a 3d da 12 90 bd 2c d6 87 3e
       0.16491792 0.04560829 -0.07034846 0.26530588
0003f0 73 b1 14 3e ca d4 00 3e 66 54 22 be d0 74 4e 3d
       0.14520817 0.12581173 -0.15852508 0.05040437
