models/remaster_1.pth (torch_old, 34011 bytes, 3 tensors)

fc0.weight f4 [128, 48]
-0.12429866 0.08495657 0.21688686 0.120120995 0.022655815 0.20987728 -0.09936883 0.09114253
0.09954087 0.024465937 -0.26398847 -0.05032504 -0.035017285 0.0922891 -0.054806843 -0.066848755
0.016293548 0.027297797 -0.3925787 0.087609336 0.15659344 -0.002120477 0.07635272 0.04244849
0.13231893 0.07647234 -0.12213991 -0.18240695 -0.26349097 0.24886145 -0.032609276 0.21675682
0.0324341 0.058146358 0.076571025 0.026658949 0.13019052 0.10748559 -0.024728471 -0.2891133
-0.042971946 -0.049916446 0.094206296 0.049743313 -0.19233367 0.32594052 -0.15791343 -0.23466305
0.121435255 -0.12504664 0.15204594 -0.06883123 0.20126078 -0.11464575 -0.11613566 -0.1645104
-0.17237423 -0.097973414 -0.113496654 0.05038666 0.14563876 0.16141865 -0.19483742 -0.18481714
0.1384723 -0.014872635 -0.08951271 -0.042033803 0.1362729 -0.092442684 -0.11577694 0.0181254
-0.03584302 -0.06369837 -0.08408004 0.011192988 -0.12305238 -0.058718346 -0.013492013 -0.020659022
-0.011171047 0.034322493 -0.103650585 -0.016430605 0.17679639 0.24058309 -0.018293932 -0.16538136
-0.14459892 -0.23593156 -0.08472404 -0.11910853 -0.2000863 0.071482874 -0.49753183 0.06657336
-0.21578102 -0.25896445 0.020161418 -0.16298339 0.13802369 0.17343853 0.020116521 -0.023974888
0.04491615 0.2407636 0.0098733585 0.14491387 -0.19882621 0.20430468 -0.07650525 -0.04315451
-0.004117001 -0.09376594 0.25485978 -0.14952093 -0.39621496 -0.18461116 -0.112352796 0.14027554
0.0176778 -0.09383441 -0.2546545 -0.17113373 -0.1371834 -0.1537113 -0.032993883 0.014505544
0.10270818 -0.09172205 0.42843395 0.1216874 0.025331166 0.30591497 0.20866852 0.15245143
0.20341666 0.09065828 0.35858652 0.20690586 0.41565835 0.060754433 0.16424635 0.2922592
-0.15890658 -0.0836586 -0.040690523 -0.18009895 0.06808287 -0.11810033 -0.23125215 -0.011236879
0.12904553 0.016666759 -0.1593471 -0.03979665 -0.18803361 0.12296563 -0.022427825 -0.047690816
-0.12870814 -0.03137625 -0.13045084 -0.027419593 -0.10963375 0.17863035 0.06821676 -0.15097472
-0.22727564 -0.2491599 -0.01828834 0.12467495 -0.20695233 -0.17987108 -0.18544784 0.064695455
-0.060359325 -0.1180704 0.027420916 -0.24528497 0.46902668 -0.18765502 0.094883054 0.17673391
-0.31791884 -0.042168632 0.16651578 0.12927309 -0.1855539 0.23075747 -0.15706776 -0.10456822
0.06412615 0.17693536 -0.11340862 0.23207349 0.14757368 -0.023103869 0.090520546 -0.08714062
0.0020723643 0.05039678 -0.093417905 -0.08459073 0.010508526 0.06064218 -0.06365464 0.13205786
-0.1488646 0.08435792 -0.036162253 -0.025552923 -0.04518354 0.06900134 -0.009898254 0.00415889
-0.047618657 0.063407235 -0.13762978 -0.11485851 -0.31485614 -0.09516554 0.17292058 0.061919734
-0.0018466268 -0.11565811 0.18452902 -0.106916815 -4.6922523e-05 -0.30068293 -0.27492508 -0.084988095
-0.08987046 -0.1258501 0.16564296 0.0124564795 0.25794494 0.074041225 -0.031528033 -0.15519041
0.22808893 0.14765416 -0.07602991 0.045153085 0.14866048 0.017308505 0.027441366 -0.14350337
-0.079065695 0.11790618 0.011115647 0.0039812503 0.12190352 -0.24650049 0.011839388 0.038296323
00000000: 4c90 febd b6fd ad3d 9717 5e3e ff01 f63d
00000010: b098 b93c 12ea 563e e381 cbbd efa8 ba3d
00000020: 15dc cb3d ca6c c83c 7f29 87be a121 4ebd
00000030: 496e 0fbd 1102 bd3d 247d 60bd 00e8 88bd
00000040: 0c7a 853c a19f df3c 1300 c9be 866c b33d
00000050: 085a 203e b3f7 0abb d15e 9c3d 78de 2d3d
00000060: 9d7e 073e 889d 9c3d 7d24 fabd e3c8 3abe
00000070: 4ae8 86be 89d5 7e3e 4e91 05bd 80f5 5d3e
00000080: 9ed9 043d e02a 6e3d 45d1 9c3d de63 da3c
00000090: aa50 053e 6821 dc3d 5d93 cabc a906 94be
000000a0: 5a03 30bd 3075 4cbd 3bef c03d a5bf 4b3d
000000b0: 1ef3 44be ade1 a63e 0fb4 21be 834b 70be
000000c0: 0cb3 f83d 3a0c 00be eeb1 1b3e 63f7 8cbd
000000d0: 4e17 4e3e 64cb eabd 88d8 edbd 6a75 28be
000000e0: df82 30be 49a6 c8bd ef70 e8bd 3e62 4e3d
000000f0: 5422 153e ee4a 253e 7683 47be b440 3dbe
00000100: afcb 0d3e 5aac 73bc 7152 b7bd a32b 2cbd
00000110: 208b 0b3e 9752 bdbd 761c edbd b87b 943c
00000120: 21d0 12bd 4a74 82bd 2832 acbd cb62 373c
00000130: e302 fcbd a682 70bd 9b0d 5dbc 1c3d a9bc
00000140: c406 37bc be95 0c3d c246 d4bd 7a99 86bc
00000150: 1d0a 353e 6a5b 763e 28dd 95bc bb59 29be
00000160: bd11 14be 0b98 71be cc83 adbd 2cef f3bd
00000170: 6ce3 4cbe 9d65 923d 7ebc febe 9d57 883d
00000180: b3f5 5cbe fd96 84be 8f29 a53c 1ee5 26be
00000190: 1556 0d3e df99 313e 67cb a43c fc66 c4bc
000001a0: fff9 373d bc8a 763e dec3 213c 4d64 143e
000001b0: 1999 4bbe 3f35 513e c9ae 9cbd c9c2 30bd
000001c0: e8e7 86bb 5b08 c0bd fb7c 823e 041c 19be
000001d0: b0dc cabe b50a 3dbe 3919 e6bd 64a4 0f3e
000001e0: 09d1 903c 412c c0bd 1362 82be ae3d 2fbe
000001f0: ce79 0cbe 7f66 1dbe 9824 07bd a9a8 6d3c
00000200: ab58 d23d c5d8 bbbd b25b db3e 3e37 f93d
00000210: 4e83 cf3c e3a0 9c3e 33ad 553e 3a1c 1c3e
00000220: 754c 503e 0cab b93d a798 b73e 21df 533e
00000230: 2cd1 d43e a4d9 783d 3230 283e ffa2 953e
00000240: 68b8 22be 3355 abbd 1bab 26bd dc6b 38be
00000250: 086f 8b3d 96de f1bd 5dcd 6cbe e31a 38bc
00000260: 8324 043e ba88 883c e32b 23be d001 23bd
00000270: e28b 40be 67d5 fb3d 8fba b7bc 7257 43bd
00000280: 11cc 03be 6284 00bd e894 05be 0e9f e0bc
00000290: a987 e0bd e0ea 363e 3bb5 8b3d 1e99 1abe
000002a0: f2ba 68be c623 7fbe 6ed1 95bc 9555 ff3d
000002b0: 50eb 53be 2030 38be 0ae6 3dbe 0d7f 843d
000002c0: 573b 77bd e5ce f1bd d4a1 e03c fc2b 7bbe
000002d0: 4424 f03e a328 40be 0c52 c23d bcf9 343e
000002e0: 42c6 a2be 04b9 2cbd 1d83 2a3e 2a60 043e
000002f0: d701 3ebe b04b 6c3e 5fd6 20be dd27 d6bd
00000300: 9254 833d 8b2e 353e c742 e8bd aca4 6d3e
00000310: 8e1d 173e 5344 bdbc d662 b93d c876 b2bd
00000320: 81d0 073b db6c 4e3d e351 bfbd e83d adbd
00000330: f42b 2c3c ef63 783d 5d5d 82bd 2d3a 073e
00000340: f66f 18be d8c3 ac3d df1e 14bd 5d54 d1bc
00000350: 6012 39bd 9350 8d3d 492c 22bc 4c47 883b
00000360: c80b 43bd a7db 813d d2ee 0cbe f03a ebbd
00000370: d334 a1be 27e6 c2bd 1812 313e 8c9f 7d3d
00000380: 830a f2ba 29de ecbd 2df5 3c3e 34f7 dabd
00000390: adce 44b8 1df3 99be fbc2 8cbe 3d0e aebd
000003a0: 010e b8bd d9de 00be 4f9e 293e 4316 4c3c
000003b0: 5c11 843e eda2 973d 8a23 01bd 3cea 1ebe
000003c0: 2590 693e a732 173e 92b5 9bbd 71f2 383d
000003d0: 743a 183e 91ca 8d3c b7cc e03c 8cf2 12be
000003e0: 32ed a1bd cc78 f13d 671e 363c 2675 823b
000003f0: 8da8 f93d a06a 7cbe fef9 413c 9bdc 1c3d

fc0.bias f4 [128]
-0.060098767 0.009894931 -0.14871687 0.010825909 -0.36624235 -0.29161158 -0.03559294 0.052039757
0.03769985 0.031024875 0.003814597 -0.33461055 -0.33656448 -0.20368697 -0.00831108 -0.17934854
-0.0885156 -0.10370686 -0.0830134 -8.941526e-05 -0.011424105 -0.011086124 0.002241499 0.057843093
-0.042681437 -0.03176334 -0.081741355 -0.22204323 -0.053439558 0.06492386 0.029929446 -0.0060888357
-0.0037885443 -0.06444125 -0.19028772 0.047487427 -0.15659398 0.026959583 -0.06897113 -0.12935479
-0.11671423 -0.07087041 -0.092729874 -0.23027353 0.04674986 -0.07647118 -0.10693462 -0.022871787
-0.004452147 -0.103014715 -0.054916028 0.05187114 -0.10192581 -0.08233086 -0.011504154 -0.062083382
0.03666656 0.10734475 -0.3231164 0.0247418 -0.34525657 0.028669527 -0.07638239 -0.05600787
-0.060758494 -0.037284937 -0.37165877 0.015755141 -0.0030769939 -0.008067722 -0.030394562 -0.008269831
-0.05435334 0.047097415 -0.013772449 -0.07282218 -0.056841586 0.0050752135 -0.392032 0.0014349825
-0.048352186 0.04201796 0.03980198 0.059078593 0.041597005 -0.16480576 -0.07080721 0.16552946
-0.014830166 -0.00279176 0.07436838 0.12522589 0.0073619555 -0.048401438 0.021678604 -0.08751668
-0.2500068 0.0011073665 -0.040565345 -0.08595726 0.06797443 0.006894794 -0.0049887835 0.017545471
-0.021674367 -0.0063834614 0.032144032 -0.22045702 -0.0071481643 -0.03926474 -0.027279349 0.02355075
-0.28581917 -0.09030298 -0.24985527 -0.04807581 0.11619737 -0.048441116 0.03095983 -0.050894972
-0.20041117 0.025525596 0.025245948 -0.058999702 -0.11577007 -0.061105758 -0.41674477 0.03380397
00000000: 202a 76bd 591e 223c 3c49 18be 275f 313c
00000010: 1e84 bbbe 1d4e 95be e7c9 11bd a427 553d
00000020: 286b 1a3d e127 fe3c 51fe 793b 1352 abbe
00000030: 2e52 acbe 5193 50be 322b 08bc 25a7 37be
00000040: ab47 b5bd 4364 d4bd ee02 aabd 7484 bbb8
00000050: 2b2c 3bbc 93a2 35bc 1de6 123b e1ec 6c3d
00000060: bbd2 2ebd 471a 02bd 0368 a7bd 4d5f 63be
00000070: 70e3 5abd cdf6 843d 992e f53c db84 c7bb
00000080: 3a49 78bb c6f9 83bd c9da 42be 2d82 423d
00000090: 2c5a 20be 58da dc3c bc40 8dbd 9575 04be
000000a0: df07 efbd 8124 91bd 29e9 bdbd d3cc 6bbe
000000b0: c87c 3f3d ec9c 9cbd 8a00 dbbd 9d5d bbbc
000000c0: 51e3 91bb 61f9 d2bd a1ef 60bd d576 543d
000000d0: 7bbe d0bd 159d a8bd eb7b 3cbc 254b 7ebd
000000e0: ad2f 163d 90d7 db3d 836f a5be 51af ca3c
000000f0: 78c5 b0be 5bdc ea3c 5f6e 9cbd 8268 65bd
00000100: e6dd 78bd 17b8 18bd 0f4a bebe ed10 813c
00000110: 64a7 49bb 7b2e 04bc 04fe f8bc 2f7e 07bc
00000120: 9ca1 5ebd 38e9 403d d7a5 61bc cc23 95bd
00000130: b9d2 68bd fa4d a63b 6bb8 c8be 0616 bc3a
00000140: f10c 46bd 061b 2c3d 6707 233d 65fc 713d
00000150: 9f61 2a3d d7c2 28be 5f03 91bd 8e80 293e
00000160: 39fa 72bc f6f5 36bb 734e 983d 373b 003e
00000170: 8f3c f13b 9640 46bd 5497 b13c f23b b3bd
00000180: e400 80be 0e25 913a d927 26bd 5c0a b0bd
00000190: 2e36 8b3d b9ed e13b f378 a3bb 85bb 8f3c
000001a0: 718e b1bc 5b2c d1bb 76a9 033d 7cbf 61be
000001b0: 263b eabb 10d4 20bd f178 dfbc 81ed c03c
000001c0: e456 92be c5f0 b8bd 0fda 7fbe 24eb 44bd
000001d0: e3f8 ed3d 316a 46bd 789f fd3c 3f77 50bd
000001e0: 9638 4dbe 0e1b d13c 97d0 ce3c aca9 71bd
000001f0: dc18 edbd 084a 7abd 925f d5be 0876 0a3d

fc1.weight f4 [16, 128]
-0.11190375 -0.042240627 0.03848298 0.059577934 -0.011763617 -0.13626757 -0.07331174 -0.047231957
-0.021213058 0.115176976 -0.025203293 0.009024752 -0.027525043 0.0091669485 0.026409917 -0.025804397
-0.123295695 -0.051054973 0.09033459 -0.13832535 -0.07435639 0.0155920535 -0.04700457 -0.029069142
0.009901896 -0.027282257 -0.0044569606 -0.17563939 0.40991953 -0.029970245 -0.035578534 0.09531586
-0.040581707 0.16537948 0.01066527 0.043531768 0.029897362 0.042790327 -0.03347129 -0.11908744
-0.050653454 0.029901592 0.06558353 -0.11224311 0.035279345 -0.013889271 -0.044195045 0.060638633
0.029755486 0.03812054 -0.0998809 0.00078901753 -0.07437862 0.039835297 0.023905678 -0.0607218
-0.095526055 -0.087719984 0.30445138 0.281959 -0.038972214 0.019989243 0.15724483 0.0018106268
0.064198725 0.02971977 0.049299665 0.2416837 0.046012234 0.11928618 -0.04033483 -0.077845596
0.008621104 0.0620291 -0.008027747 0.012838099 0.09617047 0.03784322 -0.008978974 -0.0007924442
-0.016345594 0.014766231 0.13375689 -0.10633415 0.10289971 0.08824195 0.008080761 -0.070114054
0.049935967 -0.051556308 0.03407427 0.043410935 0.016076753 -0.18398398 0.08097507 -0.013088592
0.09064252 -0.049436998 -0.000100125886 -0.03888269 -0.055098634 0.05707396 0.0751612 0.19058527
0.18459229 0.013122025 -0.2769048 0.07658263 0.05818622 0.020140104 -0.07514663 -0.04312403
-0.17520863 -0.039802823 -0.10973789 -0.18327582 0.0087656 -0.061899967 0.10501226 0.04949036
-0.100382224 0.020522568 -0.044757806 0.14932959 0.21277286 0.06517812 -0.099850304 0.053141065
-0.07244387 0.0024705238 0.012564869 0.08005232 -0.05325461 -0.090484515 0.046494868 -0.02363159
-0.0012409658 0.17166004 0.10286988 -0.052029055 -0.041866582 0.0034526668 0.010654575 -0.038982004
-0.15433685 -0.09853852 -0.21379367 -0.036251992 0.031054325 0.019707331 0.13685434 0.03853881
0.079495385 -0.05617397 0.0333251 -0.045619033 0.06440706 -0.10745922 -0.043231092 0.072501875
-0.05401697 0.12390817 0.035266627 0.044205166 0.01642256 0.17559299 -0.041796416 -0.03916781
-0.10203972 0.010208491 0.057091184 -0.11753502 0.10249994 -0.026449097 -0.06993164 0.06357566
-0.062609605 -0.08034637 -0.107123435 0.058448453 0.019217007 -0.20223665 0.023320591 -0.01937439
0.025536723 -0.13267078 0.09555019 0.11008331 -0.0033006312 -0.16933575 -0.12993638 -0.09112427
0.029809155 0.018669683 -0.13424541 0.14827104 0.105218075 0.088204004 0.0012022951 -0.026709665
-0.03462721 0.04876431 -0.10604261 0.05882307 0.05849988 -0.01871541 -0.16809803 0.06057348
-0.09104115 0.058399893 -0.17843224 -0.10848555 0.029693404 0.030829664 -0.01581258 -0.02997734
0.040894765 0.06844905 0.054865945 0.066548236 0.030499082 -0.04007988 0.04554384 -0.15341492
0.05680521 -0.05658733 0.169998 -0.0122545445 0.07768993 0.003148225 -0.20105977 0.12839407
0.15988201 0.036773123 0.224371 0.103263386 -0.105283365 -0.05378291 -0.049932674 -0.04221584
-0.09192579 -0.11016546 -0.010404731 -0.07060913 -0.0044540795 -0.13172965 0.012160233 0.043808136
0.16863663 0.048380006 -0.06110678 0.26474234 0.15043949 0.10870667 -0.14650692 0.047968872
00000000: cb2d e5bd 8204 2dbd 54a0 1d3d fe07 743d
00000010: 30bc 40bc ba89 0bbe 7724 96bd 4c76 41bd
00000020: 02c7 adbc e8e1 eb3d 2377 cebc 8edc 133c
00000030: 337c e1bc f830 163c 9c59 d83c be63 d3bc
00000040: 7482 fcbd 051f 51bd 5701 b93d 29a5 0dbe
00000050: 2a48 98bd d075 7f3c dd87 40bd 6922 eebc
00000060: 903b 223c 0a7f dfbc b20b 92bb d0da 33be
00000070: f9e0 d13e 2984 f5bc ccba 11bd f634 c33d
00000080: 0139 26bd 3d59 293e 62bd 2e3c 5e4e 323d
00000090: 50eb f43c e944 2f3d 3119 09bd 1ee4 f3bd
000000a0: ff79 4fbd 2ff4 f43c a850 863d b7df e5bd
000000b0: 1381 103d d38f 63bc dd05 35bd 3760 783d
000000c0: c7c1 f33c 4924 1c3d 5b8e ccbd 12d6 4e3a
000000d0: d153 98bd 562a 233d d7d5 c33c 6cb7 78bd
000000e0: 2aa3 c3bd 89a6 b3bd 0de1 9b3e ee5c 903e
000000f0: 54a1 1fbd 7bc0 a33c ca04 213e 8e52 ed3a
00000100: 9f7a 833d e076 f33c 72ee 493d ef7b 773e
00000110: 5377 3c3d 504c f43d 2236 25bd 836d 9fbd
00000120: 883f 0d3c 3a12 7e3d d086 03bc e456 523c
00000130: 06f5 c43d 7e01 1b3d 8c1c 13bc 08bc 4fba
00000140: 32e7 85bc 10ee 713c 91f7 083e b8c5 d9bd
00000150: 15bd d23d 32b8 b43d 2b65 043c f597 8fbd
00000160: a889 4c3d b52c 53bd 7691 0b3d aacf 313d
00000170: 65b3 833c 4c66 3cbe 42d6 a53d 8971 56bc
00000180: c9a2 b93d 737e 4abd adfa d1b8 7543 1fbd
00000190: 1baf 61bd 62c6 693d 1dee 993d c928 433e
000001a0: c305 3d3e c3fd 563c 77c6 8dbe 5bd7 9c3d
000001b0: ac54 6e3d dcfc a43c 7ae6 99bd d3a2 30bd
000001c0: e469 33be 4908 23bd 42be e0bd a8ac 3bbe
000001d0: 979d 0f3c d28a 7dbd ab10 d73d 67b6 4a3d
000001e0: 3295 cdbd f21e a83c f653 37bd dbe9 183e
000001f0: 21e1 593e 1b7c 853d 517e ccbd 72aa 593d
00000200: 745d 94bd 83e8 213b e1dc 4d3c 79f2 a33d
00000210: 8221 5abd f24f b9bd 6771 3e3d 0997 c1bc
00000220: e7a7 a2ba a6c7 2f3e 72ad d23d 6b1c 55bd
00000230: 4b7c 2bbd 2346 623b 8790 2e3c 98ab 1fbd
00000240: 7b0a 1ebe 90ce c9bd baec 5abe f87c 14bd
00000250: a465 fe3c 4571 a13c 8b23 0c3e dfda 1d3d
00000260: 7ace a23d ad16 66bd e67f 083d 06db 3abd
00000270: d9e7 833d 9413 dcbd 1613 31bd dd7b 943d
00000280: e640 5dbd 91c3 fd3d bd73 103d 7a10 353d
00000290: 9b88 863c a6ce 333e b832 2bbd 6d6e 20bd
000002a0: 33fa d0bd 8441 273c 72d8 693d 33b6 f0bd
000002b0: 7deb d13d c7ab d8bc 5238 8fbd f533 823d
000002c0: 7739 80bd a38c a4bd 8863 dbbd a567 6f3d
000002d0: fc6c 9d3c 2017 4fbe d30a bf3c 0ab7 9ebc
000002e0: 6432 d13c d9da 07be d1af c33d 5c73 e13d
000002f0: 674f 58bb 5a66 2dbe 0b0e 05be 5c9f babd
00000300: 5432 f43c 2af1 983c a177 09be 5dd4 173e
00000310: 937c d73d 4da4 b43d 5496 9d3a 3ace dabc
00000320: 43d5 0dbd 16bd 473d de2c d9bd 76f0 703d
00000330: 929d 6f3d 0f51 99bc e421 2cbe e61b 783d
00000340: c873 babd ba34 6f3d f1b6 36be ac2d debd
00000350: 953f f33c 7e8e fc3c 6289 81bc 0a93 f5bc
00000360: 4581 273d 042f 8c3d 1dbb 603d 714a 883d
00000370: 36d9 f93c cd2a 24bd 2d8c 3a3d cd18 1dbe
00000380: 94ac 683d 1ec8 67bd f513 2e3e 49c7 48bc
00000390: e61b 9f3d 7352 4e3b 9de2 4dbe bc79 033e
000003a0: 1cb8 233e 6a9f 163d 83c1 653e c17b d33d
000003b0: ce9e d7bd 784b 5cbd 3486 4cbd 84ea 2cbd
000003c0: 9743 bcbd 6e9e e1bd 9b78 2abc 859b 90bd
000003d0: 87f3 91bb 23e4 06be b73b 473c 2970 333d
000003e0: 15af 2c3e 1d2a 463d 1a4b 7abd 4f8c 873e
000003f0: cf0c 1a3e 9aa1 de3d e905 16be 027b 443d
