models/test2.pth (torch, 34762 bytes, 3 tensors)

fc0.weight f4 [128, 48]
0	0xbee597d7	-0.44842407
1	0x3d95fa6f	0.07323157
2	0x3decb94b	0.11558779
3	0x3da5a1cb	0.080875
4	0x3ca59c03	0.020215994
5	0x3e9375bf	0.2880077
6	0xbd949790	-0.07255471
7	0x3e396cb5	0.18107875
8	0x3edf6ecb	0.43639216
9	0xbe9a1559	-0.30094412
10	0xbed7d0d0	-0.421515
11	0xbced456e	-0.02896377
12	0x3d8d414b	0.06897219
13	0x3ce4fec2	0.02795351
14	0xbcd6fa61	-0.026242437
15	0x3efd503c	0.49475276
16	0x3f18d5a6	0.59701
17	0x3e3f0a30	0.1865623
18	0xbe929d99	-0.28635862
19	0x3e6faa54	0.23404819
20	0xbe0ac47a	-0.13551512
21	0xbe9b2d3e	-0.30307955
22	0xbf04bbcd	-0.5184906
23	0x3ba32953	0.0049792915
24	0x3e55ec9d	0.20891042
25	0x3ecc485a	0.3989895
26	0xbe87d8ec	-0.26532686
27	0xbde820bf	-0.11334371
28	0xbe93bd14	-0.28855193
29	0xbedfa722	-0.436822
30	0xbdb7cd7f	-0.08974742
31	0xbe032059	-0.12805308
32	0xbf001cc7	-0.5004391
33	0xbcaaf39e	-0.020868119
34	0xbe4354d4	-0.19075328
35	0xbe8b770c	-0.27239263
36	0x3d35b402	0.044361122
37	0x3e53f0f5	0.20697387
38	0xbe871171	-0.26380494
39	0xbde4e2b8	-0.11176056
40	0xbeb79610	-0.35856676
41	0x3e10c150	0.14136243
42	0x3dd1156e	0.102091655
43	0xbddcb900	-0.107774734
44	0xbdd4a1c3	-0.10382416
45	0x3ecd3957	0.4008281
46	0x3eb23e69	0.3481324
47	0xbef824c0	-0.48465538
48	0x3e5041e3	0.20337634
49	0xbe1fff46	-0.15624723
50	0x3e5d2d85	0.21599396
51	0x3e49f4e3	0.19722323
52	0x3eebf108	0.4608233
53	0x3dc1e0cb	0.09466704
54	0xbdd2901c	-0.10281393
55	0xbe94c0d6	-0.29053372
56	0xbf010005	-0.50390655
57	0xbe08693e	-0.13321397
58	0x3cbbde3a	0.022933114
59	0x3dd74a64	0.10512236
60	0x3e3a08c4	0.18167406
61	0x3e9f5e3e	0.3112659
62	0xbe8b4d76	-0.27207536
63	0xbc23bd39	-0.009993845
64	0x3ca128f8	0.019672856
65	0xbe076731	-0.13222958
66	0xbdd53bcd	-0.10411797
67	0xbe0e657d	-0.13905902
68	0x3d194565	0.037419695
69	0x3e2381df	0.1596751
70	0x3e8bd8b3	0.27313766
71	0xbe24ddd9	-0.16100253
72	0x3e8c3ce0	0.27390194
73	0xbe579434	-0.21052629
74	0xbe70d072	-0.23517016
75	0xbd50e700	-0.05100155
76	0xbd927855	-0.07151858
77	0xbe404b5b	-0.18778746
78	0x3ec15b6a	0.37765056
79	0x3f14c970	0.5811987
80	0xb9faf3e3	-0.00047865426
81	0xbc1e32d3	-0.009655672
82	0x3d811602	0.06303026
83	0x3e3672a7	0.17817174
84	0xbc9d8eb5	-0.019233087
85	0xbd2e7ace	-0.042597584
86	0xbc18a4ce	-0.009316636
87	0xbdf173df	-0.11789679
88	0xbd5abaa8	-0.053400666
89	0xbee0cef8	-0.43907905
90	0xbe2e6892	-0.17032078
91	0xbe83fc72	-0.25778538
92	0x3d1b8989	0.03797296
93	0x3ea48b2a	0.32137424
94	0x3e6e30ca	0.23260799
95	0xbeb8eeb3	-0.36119613
96	0xbe75f2aa	-0.2401835
97	0x3ea0bc7d	0.31393805
98	0xbb9b1af7	-0.004733439
99	0x3ea9eaab	0.3318685
100	0x3f094731	0.53624254
101	0x3ec2aad3	0.38020954
102	0x3d86caf7	0.06581681
103	0x3e03d0e1	0.1287265
104	0x3e763963	0.24045329
105	0x3db369ac	0.0876039
106	0xbe030a2f	-0.12796853
107	0x3e49ce21	0.19707538
108	0xbe98e131	-0.29859307
109	0x3e8cc8ff	0.27497098
110	0xbdaeddc6	-0.08538394
111	0x3d16e3e5	0.03683843
112	0xbdf7323a	-0.12070127
113	0xbe80479e	-0.2505464
114	0xbe5adfeb	-0.2137448
115	0xbe11b08e	-0.14227507
116	0xbedf3967	-0.43598482
117	0xbea461a5	-0.32105747
118	0xbce6430f	-0.028108148
119	0x3ee487c1	0.44634822
120	0xbe8c9f67	-0.27465364
121	0xbdaac246	-0.08337836
122	0xbf031b4e	-0.5121354
123	0xbe05ffde	-0.13085887
124	0xbe3569e3	-0.17716174
125	0x3e34c432	0.17652968
126	0xbe152eeb	-0.14568679
127	0xbe37edc1	-0.1796179
128	0x3d42d3dc	0.047565326
129	0xbe94ea91	-0.2908521
130	0x3f3f09fa	0.746246
131	0x3ee1fe5b	0.4413937
132	0xbe095f5b	-0.13415281
133	0x3edf3077	0.43591663
134	0x3e97f423	0.2967845
135	0x3e4ab284	0.19794661
136	0x3e2db2b9	0.16962709
137	0x3e34e3c1	0.17665006
138	0x3f169b95	0.5883115
139	0x3e43be84	0.19115645
140	0x3ecf4956	0.40485638
141	0x3d594dcd	0.053052712
142	0x3e9acc3a	0.30233938
143	0x3e773933	0.24142914
144	0xbe90c3cb	-0.28274378
145	0xbe6317d3	-0.22177057
146	0x3e3ae678	0.1825198
147	0xbd0a4c2d	-0.033764053
148	0x3eacec6a	0.3377412
149	0xbe1fbc83	-0.15599255
150	0xbde3ae63	-0.11117246
151	0x3d9c2d75	0.07625858
152	0x3e806375	0.2507588
153	0x3cf38b74	0.029729582
154	0xbe1352c2	-0.14387038
155	0xbce438a5	-0.027859041
156	0xbedcda2e	-0.43135208
157	0xbe97daf5	-0.29659238
158	0xbd798f8c	-0.060927913
159	0x3d89c262	0.06726529
160	0x3ec00d9a	0.37510377
161	0xbdd582d6	-0.104253456
162	0xbe88d085	-0.26721588
163	0xbe3dbdf5	-0.18529494
164	0x3df42926	0.11921911
165	0xbe0db0ba	-0.13836947
166	0xbd1ba483	-0.037998687
167	0x3bc2fd00	0.00595057
168	0x3c09fb30	0.008421704
169	0x3e63ee86	0.22258958
170	0x3dc9bed0	0.09850848
171	0x3ce603f0	0.02807805
172	0xbec2340f	-0.37930343
173	0x3dd5cf8d	0.10439978
174	0x3d829dee	0.06377779
175	0xbf062de5	-0.5241378
176	0xbe8204fa	-0.25394422
177	0x3cdca15d	0.026932413
178	0x3ec871a6	0.39149207
179	0xbe51c0de	-0.20483729
180	0x3d4947be	0.049140684
181	0xbed82376	-0.42214555
182	0x3e364fb4	0.17803842
183	0x3e30b8f4	0.17258054
184	0xbe22d836	-0.1590279
185	0xbee9ca81	-0.4566231
186	0x3e34b14a	0.17645755
187	0x3de429c4	0.11140779
188	0xbf16128b	-0.58622044
189	0x3e0111c9	0.12604441
190	0x3e7ce69b	0.24697344
191	0x3cda78c0	0.026668906
192	0x3f017e54	0.50583386
193	0x3db82407	0.08991247
194	0x3ad43cdb	0.0016192453
195	0x3d600349	0.054690633
196	0x3bc482fb	0.0059970594
197	0x3e58d7fa	0.21176139
198	0x3df0055a	0.11719771
199	0x3cbd4a83	0.023106819
200	0xbe7e0420	-0.24806261
201	0x3c675215	0.014118691
202	0x3b26c241	0.0025445374
203	0xbe65826e	-0.22413036
204	0x3ddf66a0	0.10908246
205	0x3da52bc9	0.08064992
206	0xbd5a335a	-0.05327163
207	0x3dc1a058	0.09454411
208	0xbea5cd56	-0.3238322
209	0xbcb640fb	-0.022247782
210	0xbef3c866	-0.4761383
211	0x3ece797f	0.4032707
212	0x3ea5fea4	0.32420838
213	0x3e430c70	0.19047713
214	0xbd3bb221	-0.045824174
215	0xbe6c8d17	-0.23100697
216	0x3d945e92	0.072446
217	0xbd235e24	-0.0398847
218	0xbd890521	-0.066904314
219	0x3d344265	0.04400863
220	0xbe826504	-0.25467694
221	0xbdc128aa	-0.09431584
222	0xbe05cc38	-0.13066185
223	0x3d78504b	0.06062345
224	0x3df32f00	0.11874199
225	0xbe9d16ca	-0.3068145
226	0x3ebbd114	0.3668295
227	0xbe04bfb9	-0.12963761
228	0xbe75514a	-0.2395679
229	0xbe376934	-0.17911226
230	0xbe7405d3	-0.23830347
231	0xbdb92e43	-0.09042027
232	0x3e045deb	0.12926452
233	0xbe93fa30	-0.28901815
234	0x3e6a3456	0.22871527
235	0x3eab0a19	0.3340614
236	0x3aa5149f	0.0012594647
237	0x3dbb01f4	0.09131232
238	0xbd4a797b	-0.04943226
239	0x3d3e0d0d	0.046399165
240	0x3e4863bc	0.19569296
241	0x3c809db7	0.015700204
242	0x3d43752c	0.047719166
243	0xbc5a8479	-0.013337248
244	0x3e28bc3d	0.16478057
245	0x3d52cbb3	0.051463794
246	0xbd5e9751	-0.054343525
247	0xbe956be0	-0.29183865
248	0x3d907398	0.07053298
249	0xbc9935e3	-0.018702453
250	0x3e111574	0.1416834
251	0x3ba861fe	0.0051386347
252	0x3da1b366	0.07895546
253	0xbe47ded6	-0.19518599
254	0x3e442903	0.1915627
255	0x3d6900ed	0.05688565

fc0.bias f4 [128]
0	0xbe6dc984	-0.23221403
1	0x3d865dd9	0.06560869
2	0xbe9fcd52	-0.31211334
3	0xbdc0d3ba	-0.09415384
4	0xbf7ae02f	-0.97998327
5	0xbf2b6738	-0.66954374
6	0x3d2b11d4	0.04176505
7	0xbd3d26d5	-0.04617961
8	0xbd5c433e	-0.053775065
9	0xbc011539	-0.007878595
10	0xbe439287	-0.19098864
11	0xbec51fd6	-0.3850085
12	0xbe1a903d	-0.15094085
13	0xbe8f2a49	-0.2796195
14	0x3d76f463	0.06029166
15	0xbe275ed8	-0.16344774
16	0xbda846f6	-0.0821666
17	0x3db411d4	0.08792463
18	0xbed93562	-0.4242354
19	0xbe25eb15	-0.16202958
20	0xbd6075c9	-0.05479983
21	0x3e30f934	0.17282563
22	0x3da61176	0.08108799
23	0x3e441185	0.19147308
24	0xbdf5d599	-0.12003631
25	0xbe462160	-0.19348669
26	0xbebaa27a	-0.36452085
27	0xbea080e2	-0.3134833
28	0x3dfd6f8e	0.12374793
29	0x3dc264ea	0.09491904
30	0xbf826c5b	-1.0189317
31	0xbd1adc24	-0.0378076
32	0xbb50bbf2	-0.0031850305
33	0x3cb723d2	0.022355948
34	0xbe0d49fd	-0.13797756
35	0xbe877212	-0.26454216
36	0xbea6e521	-0.32596686
37	0x3d8d1865	0.068894185
38	0xbe47ef41	-0.19524862
39	0xbe967854	-0.29388678
40	0xbecbf3a4	-0.3983432
41	0x3de566db	0.11201259
42	0xbfa46a3d	-1.2844921
43	0xbf0a803d	-0.54101926
44	0x3d1f75fd	0.03893088
45	0xbdae0c12	-0.08498396
46	0xbdb9e103	-0.09076121
47	0xbb8136e7	-0.0039433124
48	0x3c926c43	0.017873889
49	0xbe40d617	-0.18831669
50	0x3b485b58	0.0030572023
51	0x3e1342eb	0.14380996
52	0xbde65c94	-0.112481266
53	0xbec135ee	-0.37736458
54	0xbe819a0b	-0.25312838
55	0xbd3f93ad	-0.046771694
56	0x3da53bc5	0.08068041
57	0x3e8a6b20	0.27034855
58	0xbe3cc3ad	-0.1843402
59	0x3d235efc	0.039885506
60	0xbf8fe290	-1.1241016
61	0x3e0a320e	0.13495657
62	0x3c9786b7	0.018496854
63	0xbea0cc4e	-0.31405872
64	0x3defa071	0.11700524
65	0xbba5a26a	-0.0050547617
66	0xbf53c51e	-0.8272265
67	0xbd2b6e73	-0.04185338
68	0xbdfdf541	-0.12400294
69	0xbbc9cb21	-0.006158248
70	0xbeb7966a	-0.35856944
71	0xbe63347a	-0.22187987
72	0xbb6b82bd	-0.003593608
73	0x3d97900e	0.07400523
74	0x3d751aea	0.05984012
75	0xbd86d347	-0.06583267
76	0x3dc0e871	0.09419335
77	0x3da904e2	0.082528844
78	0xbf5549ff	-0.83316034
79	0x3bc133d7	0.0058960724
80	0xbdcf8204	-0.101322204
81	0x3d377950	0.044793427
82	0x3d85aa39	0.06526608
83	0x3dbded4c	0.092737764
84	0x3d50fb2d	0.05102079
85	0xbe6b90fc	-0.23004526
86	0xbd00364a	-0.031301774
87	0x3e038003	0.12841801
88	0xbc78b5ff	-0.01518011
89	0xbe3b58b0	-0.1829555
90	0x3dafc9a7	0.08583384
91	0x3ed14e39	0.40879992
92	0xbdae320c	-0.085056394
93	0xbfb3ee77	-1.4057149
94	0xbd93f03a	-0.07223554
95	0x3cf8b606	0.030360233
96	0xbe563c8c	-0.20921534
97	0x3d5276ba	0.051382758
98	0x3da2bdbe	0.07946347
99	0xbde72b0d	-0.11287508
100	0xbd61e31d	-0.055148233
101	0x3dbc88f6	0.09205811
102	0xbde71e62	-0.11285092
103	0x3dd90c39	0.105980344
104	0xbe6cde6a	-0.23131719
105	0xbda5de96	-0.080990955
106	0xba3d6721	-0.0007225145
107	0xbf0e5b91	-0.5560847
108	0xbe3cc007	-0.18432628
109	0xbe86a070	-0.2629428
110	0xbdc1fc5c	-0.09471962
111	0x3c12f2ac	0.00896899
112	0xbf969f71	-1.1767408
113	0xbdaac9aa	-0.083392456
114	0xbebe38ae	-0.37152618
115	0xbe8a8a36	-0.27058572
116	0xbb32e6c7	-0.0027298199
117	0x3dfaffc4	0.12255815
118	0x3d319a42	0.043360002
119	0x3aab7d92	0.0013083688
120	0xbf1b7b63	-0.6073515
121	0xbd370834	-0.044685557
122	0xbcfa9978	-0.030590758
123	0xbcc5b7fa	-0.024135578
124	0xbe9f8df6	-0.31162995
125	0xbc33a64a	-0.010964939
126	0xbf0fd144	-0.5617869
127	0x3ce54671	0.02798769

fc1.weight f4 [16, 128]
0	0x3d0ee104	0.03488256
1	0xbe0b7aec	-0.1362111
2	0x3a16c8b8	0.00057519553
3	0x3e8849f8	0.26618934
4	0xbe90e7c1	-0.28301814
5	0xbe1ec893	-0.155062
6	0x3d618622	0.05505956
7	0xbd8a6de6	-0.06759243
8	0xbe8e99cc	-0.27851713
9	0x3e85a6fe	0.26103967
10	0xbda2b80a	-0.07945259
11	0xbcaf96e8	-0.021434262
12	0x3dbb439a	0.09143753
13	0x3dd5fecc	0.10448989
14	0x3e2a5fe9	0.1663815
15	0x3d4729f2	0.048623987
16	0xbddca207	-0.10773092
17	0xbe387c9e	-0.18016288
18	0xbf01632c	-0.5054195
19	0xbe4d0ffd	-0.2002563
20	0xbe2173e7	-0.1576687
21	0x3cd923dd	0.026506359
22	0x3e39a00b	0.18127458
23	0x3dfca17d	0.12335489
24	0xbb8628a4	-0.0040942
25	0x3ef3857e	0.47562784
26	0xbcca8b0f	-0.024724511
27	0xbe305cbe	-0.17222878
28	0x3e5afaa6	0.21384677
29	0x3df15e43	0.11785557
30	0xbe52809b	-0.20556872
31	0xbe0a96df	-0.13534115
32	0xbe31ec0a	-0.17375198
33	0x3df7b4a7	0.120950036
34	0xbd10251a	-0.035191633
35	0xbc92af05	-0.017905721
36	0xbad949e4	-0.0016577807
37	0x3df57453	0.11985078
38	0xbd853af4	-0.06505385
39	0xbbedf878	-0.007262286
40	0xbe9e4c90	-0.30917788
41	0xbe07dad5	-0.13267072
42	0x3e355f70	0.17712188
43	0xbdd587d4	-0.10426298
44	0x3e6a807f	0.2290058
45	0x3d8b18db	0.0679185
46	0x3cb38183	0.021912342
47	0xbdbe0b04	-0.09279445
48	0x3eac7bfb	0.3368834
49	0x3d809de6	0.06280117
50	0xbd693d4b	-0.05694322
51	0x3dbd362a	0.092388466
52	0xbd7cf95e	-0.061761253
53	0x3e90ff92	0.28319985
54	0x3e87a745	0.26494804
55	0x3e2d1ca8	0.16905463
56	0xbe019998	-0.12656248
57	0xbd6cd477	-0.05781981
58	0x3e0a322a	0.13495699
59	0x3e114bbe	0.1418905
60	0xbd734675	-0.059393365
61	0x3c953a9c	0.018216424
62	0x3e5af29d	0.21381612
63	0x3bd12b65	0.006383347
64	0x3df68df0	0.12038791
65	0xbd6f1ed8	-0.058379024
66	0xbe21a1f3	-0.15784435
67	0x3d2d6e42	0.04234148
68	0x3bee7c17	0.0072779763
69	0x3e1281cb	0.14307325
70	0x3da23a89	0.07921321
71	0xbe8c87aa	-0.27447253
72	0x3d285257	0.04109415
73	0x3e065962	0.13120034
74	0xbe7c559e	-0.24642035
75	0xbdb3966b	-0.08768924
76	0xbe9ae002	-0.3024903
77	0xbd038619	-0.032110307
78	0xbe276112	-0.16345623
79	0xbd91253b	-0.07087179
80	0xbd928905	-0.07155041
81	0x3e48cb4a	0.19608799
82	0x3e68886a	0.22708288
83	0x3dd2de69	0.102963276
84	0xbb886387	-0.004162255
85	0x3d84428d	0.06458006
86	0x3d99f5ad	0.07517562
87	0xbe81df91	-0.2536588
88	0xbc6a7a65	-0.014311408
89	0x3d83b15b	0.06430312
90	0x3e1ed8ff	0.15512465
91	0x3d8bf186	0.06833176
92	0x3d389b65	0.04507007
93	0xbde8e046	-0.11370902
94	0x3ddbb5a8	0.107280076
95	0xbe1754d9	-0.1477846
96	0x3ef56e11	0.47935537
97	0xba0a3caa	-0.0005273322
98	0x3dc8f9fa	0.09813304
99	0xbe6e5645	-0.23275097
100	0xbdf20cbc	-0.11818835
101	0x3e80c97a	0.25153714
102	0x3dd97a70	0.10619056
103	0xbe16eae3	-0.1473804
104	0x3d1beb19	0.038066003
105	0xbe04da7e	-0.12973973
106	0xbf17ea58	-0.59341955
107	0x3e81c881	0.25348285
108	0x3e96d268	0.29457402
109	0x3e075aff	0.13218306
110	0xbd968915	-0.07350365
111	0xbe29a634	-0.16567308
112	0xbd91c8fe	-0.07118414
113	0xbdfcb075	-0.12338344
114	0xbcf2a1ec	-0.029618226
115	0xbe6ad516	-0.22932848
116	0xbe4c3e1e	-0.19945571
117	0x3c5b308d	0.013378275
118	0x3e34282d	0.17593451
119	0x3ec2a295	0.38014665
120	0xbd56a8ed	-0.052407194
121	0x3dfbbade	0.122915015
122	0x3e39a282	0.18128398
123	0x3e675d5c	0.22594208
124	0xbe3a8322	-0.18214086
125	0x3e0e9016	0.13922152
126	0xbdcfb273	-0.10141458
127	0x3c6fb50c	0.014630567
128	0xbc566fdb	-0.013088192
129	0xbda54db6	-0.08071463
130	0x3e04096e	0.12894222
131	0x3e336b3c	0.17521375
132	0xbe2c6058	-0.16833627
133	0xbe3ab683	-0.18233685
134	0x3ca04eab	0.019568762
135	0xbe4a9520	-0.19783449
136	0xbe1bfe8d	-0.15233822
137	0x3e81e984	0.2537347
138	0xbe64f229	-0.22358002
139	0xbc81374d	-0.01577344
140	0x3eb07c70	0.34469938
141	0x3d96392f	0.07335126
142	0x3e29962d	0.16561194
143	0x3ca56d1a	0.020193625
144	0xbd9656c7	-0.0734077
145	0xbe06b3ef	-0.13154577
146	0xbdf1c2e8	-0.118047535
147	0xbd897282	-0.06711294
148	0xbe44a2b3	-0.1920269
149	0x3dcf97b1	0.10136355
150	0x3dcfcaa4	0.101460725
151	0x3e085482	0.13313487
152	0x3dceb910	0.100938916
153	0xbe8232c4	-0.25429356
154	0x3d8899eb	0.066699825
155	0xbbb5da7c	-0.005549727
156	0xbe0b22d9	-0.13587512
157	0x3de928a6	0.11384706
158	0xbe43b440	-0.19111729
159	0x3d5438b7	0.0518119
160	0x3cccc355	0.024995485
161	0x3e7b95d5	0.24568875
162	0xbd9a2364	-0.075262815
163	0xbd470f1f	-0.048598405
164	0x3ea03d06	0.31296557
165	0x3d4a0170	0.049317777
166	0xbd059f25	-0.032622475
167	0xbcccf1f0	-0.025017709
168	0xbe1a7e0f	-0.1508715
169	0xbe4081ec	-0.18799561
170	0x3d31d650	0.043417275
171	0xbc77bf51	-0.015121297
172	0x3d9e44bb	0.07727953
173	0x3d25761f	0.040395852
174	0xbcd209d4	-0.025639452
175	0x38f76616	0.00011796893
176	0x3f264dee	0.6496266
177	0x3cf63f1e	0.030059393
178	0x3c6b179f	0.014348893
179	0x3e4cca16	0.19998965
180	0xbc242b35	-0.010020067
181	0xbdc4906a	-0.09597857
182	0x3d94f235	0.0727276
183	0x3dc2368d	0.09483061
184	0xbd715c9a	-0.058926202
185	0x3d35955e	0.0443319
186	0x3db1ae95	0.08675877
187	0x3d9e07b4	0.07716313
188	0xbd2a26da	-0.041540958
189	0xbe481566	-0.19539413
190	0x3ccb2d46	0.024801861
191	0xbd880741	-0.066420086
192	0x3d512289	0.051058326
193	0x3d11e41f	0.035617944
194	0xbcfbd8ed	-0.030743087
195	0x3e36faf2	0.17869166
196	0x3dc44ee3	0.09585359
197	0x3e2f2543	0.17104058
198	0xbbe9784d	-0.0071249367
199	0x3d4aac5b	0.049480777
200	0x3cb75eed	0.022384131
201	0x3d596912	0.05307872
202	0xbe90c724	-0.28276932
203	0x3d82d3d5	0.0638806
204	0xbdf8e935	-0.12153856
205	0x3d443ced	0.047909666
206	0xbe85b0c6	-0.2611143
207	0x3e735a73	0.23764972
208	0xbd862316	-0.06549661
209	0x3e386d98	0.18010557
210	0xbe22f46f	-0.15913557
211	0x3da25683	0.07926657
212	0xbbcf9775	-0.0063351938
213	0x3db003a4	0.085944444
214	0x3e2aaf98	0.16668546
215	0xbe96914e	-0.29407734
216	0x3d06ec2b	0.03294007
217	0x3cfb33b3	0.0306643
218	0x3d776b9f	0.06040537
219	0x3d896a33	0.06709709
220	0x3cb14b7b	0.021642437
221	0x3d49e395	0.049289305
222	0x3de1b82a	0.11021455
223	0xbd5a1a97	-0.053248014
224	0x3e7f0c93	0.2490714
225	0x3ce3e274	0.027817942
226	0x3e5a90ac	0.2134425
227	0xbd081d0d	-0.03323083
228	0xbc55c940	-0.01304847
229	0x3e1cb4cc	0.15303344
230	0x3c0d196b	0.008612017
231	0xbe24ece8	-0.16105998
232	0x3de1d97a	0.110278085
233	0xbc136ea6	-0.008998549
234	0x3eed5ca8	0.46359754
235	0x3d3b7b7f	0.045772072
236	0x3e8a6331	0.27028802
237	0x3d1db06d	0.03849833
238	0x3d003bea	0.03130714
239	0xbe147036	-0.1449593
240	0xbd90761b	-0.07053777
241	0xbe0ae0c5	-0.13562305
242	0x3d949415	0.07254807
243	0xbe86f40d	-0.2635807
244	0xbe3558b0	-0.17709613
245	0xbe2506f9	-0.16115941
246	0xbc370237	-0.011169962
247	0xbeb8b059	-0.36072043
248	0xbd88a61d	-0.066723086
249	0x3d315a77	0.043299165
250	0x3dc90005	0.09814457
251	0x3e821ac7	0.25411054
252	0xbe15c539	-0.14626016
253	0x3e5af212	0.21381405
254	0xbe1169ce	-0.14200518
255	0xbd87bed0	-0.066281915
